L2D/SavedNetwork/10_10_1_99.pth (torch, 93026 bytes, 30 tensors)

feature_extract.mlps.0.linears.0.weight f4 [64, 2]
0	0xbe9ab8fe	-0.30219263
1	0x3ed64109	0.41846493
2	0x3efef78b	0.49798235
3	0xbe7554bf	-0.2395811
4	0x3d909d69	0.070612736
5	0xbeda8ba6	-0.42684668
6	0xbf09338a	-0.5359427
7	0x3eb1c00c	0.34716833
8	0x3f023222	0.50857747
9	0xbcbb1552	-0.022837315
10	0xbf31925f	-0.6936397
11	0xbe4c7a32	-0.19968489
12	0xbed80750	-0.4219308
13	0xbe45bf6b	-0.19311301
14	0xbe5ab882	-0.21359447
15	0xbf13a964	-0.57680345
16	0xbec87f6d	-0.39159718
17	0x3e8ea015	0.27856508
18	0xbeb7d1e0	-0.3590231
19	0xbea956a0	-0.33073902
20	0xbece0a26	-0.40242118
21	0x3f0c343b	0.547672
22	0xbea3278f	-0.31866118
23	0xbe57d844	-0.21078593
24	0xbe0d4d95	-0.13799126
25	0x3f2aaea1	0.6667271
26	0xbecf8710	-0.40532732
27	0x3e82d543	0.2555333
28	0x3f1c830e	0.61137474
29	0x3e1345fc	0.14382166
30	0x3f35ca51	0.71011835
31	0xbead92e4	-0.3390113
32	0x3f0817f0	0.53161526
33	0xbf20d9c0	-0.6283226
34	0x3eca5a90	0.3952222
35	0xbf04da9d	-0.5189608
36	0xbf0b79fd	-0.54483014
37	0x3e0c11ef	0.13678716
38	0xbb9e842c	-0.0048375335
39	0x3e684d5f	0.22685765
40	0x3c5b7759	0.013395154
41	0x3c80d9c7	0.015728844
42	0xbeaf703a	-0.3426531
43	0x3e69ee1a	0.22844735
44	0xbe5a79a3	-0.21335463
45	0x3e12f650	0.14351773
46	0x3cadb788	0.021205679
47	0xbd2d8efa	-0.04237268
48	0xbea27490	-0.31729555
49	0x3f006c1b	0.50164956
50	0xbf220b4e	-0.632985
51	0xbc85b8e8	-0.016323522
52	0x3ec5196e	0.38495964
53	0xbe328c0f	-0.1743624
54	0x3ef11f52	0.47094208
55	0xbefa28b1	-0.4885917
56	0xbf1c437f	-0.6104049
57	0xbea56570	-0.32303953
58	0xbf045d54	-0.5170491
59	0xbcd30ccf	-0.025762944
60	0xbe9212be	-0.28529924
61	0x3e668790	0.2251265
62	0x3edd4fcc	0.43224943
63	0x3e04bfdd	0.12963815
64	0xbc917ab4	-0.017758705
65	0xbe89214b	-0.26783213
66	0xbeb7d571	-0.3590503
67	0x3f0e4e00	0.5558777
68	0x3f0449f7	0.5167536
69	0x3eb4d2be	0.35317034
70	0xbea6f9dc	-0.32612503
71	0xbe81c262	-0.25343615
72	0x3da55b29	0.08074028
73	0x3d477ef9	0.048705075
74	0xbd43c276	-0.047792874
75	0xbedc01a7	-0.4297001
76	0xbef43179	-0.47693995
77	0x3eba1970	0.36347532
78	0x3ed11a0f	0.40840194
79	0x3f0e26b6	0.5552782
80	0x3f29b8bf	0.66297525
81	0xbe24b427	-0.16084348
82	0xbd7a05ca	-0.061040677
83	0x3cce46dc	0.025180273
84	0x3e13f831	0.14450146
85	0x3e11979e	0.14217994
86	0x3cc356dc	0.023845129
87	0xbeaded87	-0.3397028
88	0xbc641025	-0.013919865
89	0x3ec149ac	0.3775152
90	0x3eaae179	0.33375147
91	0x3f21053c	0.6289861
92	0x3ea159b7	0.3151376
93	0xbf2d7a9d	-0.6776522
94	0x3e94e4ed	0.29080907
95	0xbf0e1aa0	-0.55509377
96	0x3f0ddd60	0.55415916
97	0xbf0e1207	-0.5549626
98	0xbf0e2475	-0.5552438
99	0x3e274e28	0.16338408
100	0x3e0eb711	0.13937022
101	0x3f018da7	0.5060677
102	0xbef182ce	-0.4717011
103	0x3f0ae6e6	0.54258573
104	0x3e00420b	0.12525193
105	0xbdf404e9	-0.11914999
106	0xbf02c153	-0.5107624
107	0x3eaa1d0f	0.33225295
108	0x3dbebbac	0.09313139
109	0x3f0ea5fb	0.55722016
110	0xbed07911	-0.40717366
111	0x3f19ef2c	0.6013057
112	0xbef65781	-0.48113635
113	0xbed1c0e9	-0.4096749
114	0x3ec8a916	0.39191502
115	0xbdbe32bc	-0.092870206
116	0xbedc385c	-0.4301175
117	0xbd54cedc	-0.05195509
118	0x3f2eea24	0.6832602
119	0xbd2466db	-0.040137153
120	0x3e7d5dc1	0.24742796
121	0xbe24d238	-0.16095817
122	0x3e23fe29	0.16014923
123	0x3f30d40a	0.69073546
124	0x3eafa320	0.34304142
125	0xbefbe063	-0.4919463
126	0xbed6f6aa	-0.41985065
127	0xbdd5a2db	-0.10431453

feature_extract.mlps.0.linears.0.bias f4 [64]
0	0x3ea411bb	0.32044777
1	0xbec728ee	-0.38898414
2	0xbd456609	-0.04819301
3	0x3eb1c66b	0.34721693
4	0xbeb1e46a	-0.3474458
5	0xbec58609	-0.38578823
6	0x3c5a4f98	0.013324641
7	0xbf14af4f	-0.5808
8	0x3e94b4a3	0.29044065
9	0xbe49c619	-0.19704475
10	0x3f10b397	0.5652403
11	0x3d4ed17a	0.05049274
12	0x3eac4558	0.33646655
13	0xbdf86385	-0.12128357
14	0xbe80b839	-0.2514055
15	0xbe9bc4bc	-0.30423534
16	0x3eb02eca	0.34410697
17	0x3f247eb2	0.6425582
18	0x3e831fb9	0.2561014
19	0xbe2493da	-0.16072026
20	0x3ebc4586	0.36771792
21	0xbf08e346	-0.5347179
22	0xbf1b03c4	-0.6055262
23	0xbe6fe1d3	-0.23425989
24	0x3e9ff516	0.31241673
25	0xbd981915	-0.07426659
26	0xbefaa8d3	-0.48956928
27	0xbf15e0fc	-0.58546424
28	0x3eb3936f	0.3507342
29	0xbebb5b59	-0.3659313
30	0xbe92f840	-0.28705025
31	0x3f202a21	0.62564284
32	0x3dd48bce	0.10378228
33	0xbed38b44	-0.4131719
34	0x3d6d96b5	0.058005054
35	0x3ec6624e	0.38746876
36	0xbea8fe08	-0.3300631
37	0xbee30c39	-0.44345263
38	0xbf2953e6	-0.66143644
39	0xbf194542	-0.59871304
40	0xbf0714db	-0.527662
41	0x3ebbb59d	0.36661997
42	0x3d8367d7	0.0641629
43	0x3e5d3860	0.21603537
44	0x3ecd5992	0.401074
45	0x3f232536	0.63728654
46	0xbe410f0a	-0.18853393
47	0x3f21ed0d	0.63252336
48	0x3de4a68c	0.11164579
49	0x3f10c14c	0.5654495
50	0xbf28b7c6	-0.65905416
51	0xbe9eb150	-0.30994654
52	0xbe892a3f	-0.26790044
53	0x3f04aa9c	0.5182283
54	0x3ed4be03	0.41551217
55	0xbf3280e8	-0.69727945
56	0xbecc170d	-0.39861336
57	0xbf0da276	-0.5532602
58	0xbf31870f	-0.6934671
59	0xbf2816e0	-0.65659904
60	0x3eadaa10	0.3391881
61	0x3e7d7773	0.24752598
62	0xbd5ff097	-0.054672804
63	0xbced7340	-0.02898562

feature_extract.mlps.0.linears.1.weight f4 [64, 64]
0	0xbd801134	-0.06253281
1	0x3d6142a1	0.054995183
2	0xbde1965d	-0.11015008
3	0xbdb8a29c	-0.0901539
4	0xbde44f39	-0.11147923
5	0xbd6ac613	-0.057317805
6	0xbdcf3e8c	-0.10119352
7	0x3da0973e	0.07841347
8	0xbdf00acf	-0.117208116
9	0x3c1cf9c7	0.009581036
10	0x3cfe358d	0.031031394
11	0xbaf6e3c6	-0.0018836192
12	0x3d82acaf	0.06380593
13	0x3df7ba49	0.12096078
14	0x3d6f4e5b	0.058424335
15	0x3ca6904a	0.020332474
16	0xbd59eada	-0.053202488
17	0xbc82d982	-0.015972856
18	0x3df87482	0.12131597
19	0x3d41c099	0.047302816
20	0xbd21bf4d	-0.03948908
21	0xbc2cc740	-0.010545552
22	0xbdd86bfd	-0.10567472
23	0xbdcb65c9	-0.09931523
24	0x3da13447	0.07871299
25	0x3c903d5c	0.017607383
26	0x3da785ba	0.08179803
27	0x3d95f7b7	0.073226385
28	0xbcae35b2	-0.021265838
29	0x3ddd8507	0.108163886
30	0x3d2b8585	0.04187538
31	0x3daceee8	0.08444005
32	0x3da00dac	0.07815108
33	0x3df4bc75	0.11950008
34	0xbdb35baa	-0.08757718
35	0xbca29040	-0.019844174
36	0x3d76e32d	0.060275245
37	0xbde42fe7	-0.11141949
38	0x3ce84c76	0.028356772
39	0xbde54a4d	-0.111958124
40	0xbd8a5f3a	-0.06756444
41	0xbd40a5bb	-0.047033053
42	0xbd892bda	-0.06697817
43	0x3d01a096	0.031647287
44	0x3dce360b	0.10068902
45	0xbde69858	-0.11259526
46	0x3dacd962	0.084399
47	0xbd3c95e4	-0.046041384
48	0xbc8d9cdd	-0.017286712
49	0xbc882377	-0.016618473
50	0xbcece2f4	-0.028916813
51	0xba60a0db	-0.0008568891
52	0xbd24c8e9	-0.040230665
53	0xbda38f30	-0.07986295
54	0x3b0095a9	0.0019620454
55	0x3d75633a	0.059909083
56	0x3caafb62	0.020871822
57	0x3d68dfea	0.056854166
58	0xbd0f4b1a	-0.03498373
59	0x3b08e3e2	0.0020887782
60	0x3d950933	0.07277145
61	0x3dea067d	0.11427019
62	0xbdf8a7ab	-0.12141355
63	0x3dbda4b6	0.09259932
64	0x3db47989	0.088122435
65	0xbda86a9d	-0.0822346
66	0xbd2ba444	-0.041904703
67	0x3d355a9b	0.04427586
68	0x3d9caa60	0.07649684
69	0xbdf556b8	-0.11979431
70	0x3c076d52	0.00826581
71	0xbbc9787c	-0.006148396
72	0xbc2c24e7	-0.010506845
73	0x3dd1efd1	0.102508195
74	0x3b2f96cb	0.002679276
75	0xbd5b93f3	-0.053607892
76	0x3db22f46	0.08700423
77	0xbd159410	-0.036518157
78	0x3dabad43	0.083826564
79	0x3ddb7a80	0.107167244
80	0x3d4420b4	0.04788275
81	0xbd9bbe36	-0.07604639
82	0xbd760293	-0.06006105
83	0xbdd0817e	-0.10180949
84	0xbd8db0fc	-0.06918523
85	0xbdf7ec24	-0.12105587
86	0x39fe174a	0.00048464007
87	0xbd3f9f02	-0.0467825
88	0x3dd5898f	0.10426628
89	0x3cbc0fd8	0.022956774
90	0xbd5921a2	-0.05301059
91	0xbdf8adb4	-0.12142506
92	0x3d755223	0.059892785
93	0xbde88a71	-0.113545306
94	0xbd46f47d	-0.048573006
95	0x3d3fe921	0.04685319
96	0x3d6c92a9	0.057757054
97	0xbd27935d	-0.04091202
98	0x3da3cf5d	0.07998536
99	0xbd7e787b	-0.062126618
100	0xbd9f8c49	-0.07790429
101	0x3da33a3e	0.07970093
102	0x3b65491e	0.0034986208
103	0x3d3a02b3	0.04541273
104	0x3c7c21dd	0.015388933
105	0x3d0ea903	0.03482915
106	0xbda00444	-0.078133136
107	0x3d1c1979	0.03811023
108	0xbcb554f8	-0.022135243
109	0xbdb2c2f8	-0.087285936
110	0x3df5562d	0.11979327
111	0x3d9bb187	0.0760222
112	0x3ae34c08	0.0017341385
113	0x3de9ac39	0.11409802
114	0xbdfa6144	-0.12225583
115	0x3da82061	0.08209301
116	0xbb1afdbf	-0.002364978
117	0xbda9d22a	-0.08292039
118	0x3df6c727	0.12049704
119	0x3ddaf9c6	0.10692172
120	0xbd4f218c	-0.050569102
121	0xbd809ac3	-0.062795185
122	0xbd534370	-0.051577985
123	0xbd32111a	-0.04347334
124	0x3d128efc	0.03578089
125	0x3d3aa865	0.04557075
126	0x3cc8c8dc	0.02450984
127	0xbdfca7b9	-0.12336678
128	0xbd98f835	-0.07469217
129	0xbd04aadc	-0.032389507
130	0xbc7f24ef	-0.0155727705
131	0xbc0b5f3f	-0.008506595
132	0x3b88365e	0.0041568717
133	0xbc99064a	-0.018679757
134	0xbdb95a60	-0.09050441
135	0x3d268a56	0.04065927
136	0xbdc844fe	-0.09778784
137	0xbdc563a8	-0.096381485
138	0x3c745c21	0.014914543
139	0x3df030c8	0.11728054
140	0xbd52527d	-0.0513482
141	0xbdd48d59	-0.103785224
142	0x3ae6fbc7	0.0017622643
143	0x3d788e39	0.06068251
144	0x3d194570	0.037419736
145	0xba3ddd9a	-0.0007242799
146	0xbd994f32	-0.074858084
147	0x3b9ab6b6	0.004721488
148	0x3c2d6a3a	0.010584408
149	0xbde00c6b	-0.109398685
150	0x3d4042fd	0.046938885
151	0x3cfa85c4	0.030581363
152	0x3d4f1618	0.05055818
153	0x3db4970d	0.08817873
154	0xbd380c28	-0.044933468
155	0x3d5d9691	0.05409867
156	0x3dc516dc	0.09623501
157	0xbdf27821	-0.11839319
158	0xbdd84bd2	-0.105613366
159	0x3c6fc8e7	0.014635301
160	0xbd4e6339	-0.050387595
161	0x3d9fea4e	0.07808362
162	0x3e012cb8	0.12614715
163	0xbc3dcbe5	-0.011584257
164	0x3c6afef7	0.014343015
165	0xbda7e2fa	-0.08197589
166	0x3de9e0bd	0.114198186
167	0xbcf0e209	-0.029404657
168	0xbd983029	-0.07431061
169	0xbdf73b85	-0.12071899
170	0xbd97e047	-0.074158244
171	0xbc5c2729	-0.013437071
172	0xbd80de81	-0.06292439
173	0xba0c9c43	-0.0005363861
174	0x3ba9bf03	0.005180241
175	0xbb846869	-0.004040767
176	0x3bc77848	0.0060873367
177	0xbc480c18	-0.012209915
178	0x3d84dae8	0.064870656
179	0xbdf14943	-0.11781552
180	0xbdaec6cb	-0.085340105
181	0xbc891432	-0.016733263
182	0xbd88a855	-0.06672732
183	0x3db6f9cc	0.08934364
184	0x3daa417b	0.08313271
185	0x3d0fa558	0.035069793
186	0xbd25a5c9	-0.04044131
187	0xbaddfee8	-0.001693693
188	0x3dc49b90	0.09599984
189	0x3c1d4470	0.009598836
190	0x3dce5815	0.10075394
191	0x3dd8a401	0.10578156
192	0x3c99cfb5	0.0187758
193	0x3dc0e7d1	0.094192155
194	0xbb692c24	-0.0035579288
195	0xbc9e63c6	-0.019334685
196	0xbbb1a770	-0.0054215714
197	0xbdcfa816	-0.10139482
198	0x3ddc26a7	0.1074956
199	0x3e003ff0	0.1252439
200	0xbcab4b96	-0.020910066
201	0xbdab5d2e	-0.08367382
202	0xbd251655	-0.0403045
203	0xbb4ef89c	-0.0031581288
204	0xbdcd2565	-0.10016898
205	0x3d428ab9	0.047495577
206	0xbd95e42d	-0.07318912
207	0x3d932933	0.071855925
208	0x3cd9aa47	0.026570452
209	0x3db1cb3d	0.08681343
210	0x3d784422	0.06061185
211	0x3dcf59fa	0.101245835
212	0x3de19579	0.11014838
213	0x3d8d3f21	0.068968065
214	0xbda1f4e2	-0.07908036
215	0xbd95b93f	-0.073107235
216	0x3d405d1a	0.04696379
217	0x3dd94279	0.10608382
218	0xbd95c6be	-0.07313298
219	0xbd9ea39c	-0.0774605
220	0xbdefe54c	-0.11713657
221	0x3cdc539a	0.026895333
222	0xbdabc3ed	-0.08386979
223	0xbd746191	-0.05966336
224	0x3d179f85	0.037017364
225	0xbd91f89f	-0.07127499
226	0x3dc63c50	0.096794724
227	0xbc2d839d	-0.010590461
228	0x3cf30d16	0.029669326
229	0x3d1e3962	0.038628943
230	0x3bda3e39	0.0066602495
231	0x3d9fc1d5	0.078006424
232	0xbddfb9aa	-0.109240845
233	0x3d9e2974	0.0772275
234	0x3d684a42	0.056711443
235	0x3c6fcda1	0.014636428
236	0x3d8b7eab	0.068112694
237	0x3dcf8df0	0.10134494
238	0xbd6c60ef	-0.05770963
239	0x3df262f8	0.11835283
240	0xbca201f5	-0.019776324
241	0xbde4f6b7	-0.111798696
242	0x3d6dfe8c	0.058104083
243	0xbd99f0e7	-0.075166516
244	0x3c44f2fa	0.012020821
245	0xbdbd8ef6	-0.09255783
246	0x3ca961b8	0.020676479
247	0x3c681368	0.014164783
248	0xbde46bae	-0.11153351
249	0xbd5301f7	-0.051515546
250	0xbd52ae92	-0.051436014
251	0xbdbd5b0b	-0.09245881
252	0x3d0d76dc	0.03453718
253	0xbd35843c	-0.04431556
254	0x3c3882c6	0.011261648
255	0x3d904aa3	0.07045486

feature_extract.mlps.0.linears.1.bias f4 [64]
0	0x3d1fbd35	0.0389988
1	0x3d5704a9	0.05249468
2	0x3c4b0449	0.012391158
3	0x3dcc05f0	0.0996207
4	0xbdb28e2a	-0.08718522
5	0x3cedb39f	0.029016314
6	0x3cda7dde	0.026671346
7	0x3cbeb48a	0.023279447
8	0x3da5c7b4	0.08094731
9	0x3de459b0	0.11149919
10	0x3dae4961	0.0851009
11	0xbc9a3362	-0.01882333
12	0x3de1c29d	0.11023448
13	0x3d4c835c	0.04992996
14	0x3d243158	0.04008612
15	0x3b8ee5eb	0.0043609045
16	0xbd8498fd	-0.06474493
17	0x3d92ac0c	0.071617216
18	0x3d0a690b	0.033791583
19	0x3cd23e68	0.025664523
20	0xbd1e3e44	-0.0386336
21	0x3deaeabc	0.11470553
22	0x3db2edff	0.087368004
23	0x3df1dcb4	0.11809674
24	0xbcf37b6a	-0.029721934
25	0x3d2f2cd4	0.04276736
26	0xbd4a566c	-0.049398825
27	0x3dbb9777	0.09159749
28	0x3dde1e92	0.108456746
29	0x3d0c4e16	0.034254156
30	0x3dd71df2	0.105037585
31	0xbdc042dc	-0.093877524
32	0x3cf74d3f	0.030188201
33	0x3d859494	0.0652248
34	0xbda8226c	-0.082096905
35	0xbb220af7	-0.0024725774
36	0x3d819607	0.063274436
37	0xbd1baf55	-0.038009007
38	0xbdb26787	-0.087111525
39	0x3d8cfacd	0.06883774
40	0xbdbc8eff	-0.09206962
41	0xbbe8eeee	-0.0071085608
42	0x3de9ac3e	0.11409806
43	0xbd0a20de	-0.03372275
44	0xbc11438f	-0.008866205
45	0x3ce159c2	0.02750862
46	0xbde43ce5	-0.11144427
47	0xbde0891c	-0.109636515
48	0xbd2eaecc	-0.042647168
49	0x3cdc4d4c	0.026892327
50	0x3dfeb18d	0.12436209
51	0x3d272c63	0.040813815
52	0xbdfc3e53	-0.12316575
53	0x3dba0dcd	0.090846635
54	0xbd52aee4	-0.05143632
55	0x3c3c4687	0.011491424
56	0x3db43f9a	0.088011935
57	0x3d8d6979	0.06904883
58	0x3d4b3a3e	0.04961609
59	0x3ce3f70f	0.027827768
60	0xbdd272c4	-0.10275796
61	0xbcec4fdc	-0.028846674
62	0x3dd83113	0.10556235
63	0xbdf84710	-0.12122929

feature_extract.mlps.0.batch_norms.0.weight f4 [64]
0	0x3f8026f9	1.0011894
1	0x3f7d5186	0.9895252
2	0x3f80180a	1.0007336
3	0x3f7fc795	0.99913913
4	0x3f7ef8ec	0.99598575
5	0x3f807189	1.0034648
6	0x3f7f88a2	0.9981786
7	0x3f80f686	1.0075233
8	0x3f7ed34f	0.9954118
9	0x3f804c9d	1.002338
10	0x3f80725a	1.0034897
11	0x3f812fac	1.0092673
12	0x3f7eb121	0.9948903
13	0x3f8008f7	1.0002736
14	0x3f805b0a	1.0027783
15	0x3f8008b9	1.0002662
16	0x3f801138	1.0005255
17	0x3f7fde05	0.9994815
18	0x3f807f72	1.0038893
19	0x3f80ff22	1.007786
20	0x3f8008d8	1.0002699
21	0x3f7f4fc8	0.9973111
22	0x3f7ede17	0.9955763
23	0x3f809063	1.0044063
24	0x3f7eabc0	0.9948082
25	0x3f7f60df	0.9975719
26	0x3f8098ca	1.0046628
27	0x3f7e3582	0.99300396
28	0x3f810df4	1.0082383
29	0x3f801dac	1.0009055
30	0x3f805aaa	1.0027668
31	0x3f7e01eb	0.99221677
32	0x3f800a0e	1.0003068
33	0x3f801d63	1.0008968
34	0x3f802016	1.0009792
35	0x3f8078b9	1.0036842
36	0x3f7f83af	0.9981031
37	0x3f805495	1.0025812
38	0x3f7f1b3e	0.99650943
39	0x3f80c6d0	1.0060673
40	0x3f804b6c	1.0023017
41	0x3f7ffcd9	0.9999519
42	0x3f804918	1.0022306
43	0x3f80245d	1.0011097
44	0x3f7ee44a	0.9956709
45	0x3f7fbc47	0.99896663
46	0x3f7fff33	0.9999878
47	0x3f8035ac	1.0016379
48	0x3f7fb7a3	0.9988958
49	0x3f7efc38	0.99603605
50	0x3f803b91	1.0018178
51	0x3f7fa1d8	0.9985633
52	0x3f80657c	1.003097
53	0x3f80a57a	1.00505
54	0x3f7eda2b	0.9955165
55	0x3f8081a2	1.0039561
56	0x3f8010c3	1.0005115
57	0x3f810341	1.0079118
58	0x3f7ef340	0.9958992
59	0x3f7ea76b	0.9947421
60	0x3f8065f0	1.0031109
61	0x3f7f5ddd	0.997526
62	0x3f806f8d	1.0034043
63	0x3f7ecbd2	0.99529755

feature_extract.mlps.0.batch_norms.0.bias f4 [64]
0	0x3af6a519	0.0018817513
1	0xbb1ea0c6	-0.0024204715
2	0x3aea66bd	0.0017883402
3	0xbb73f76b	-0.003722633
4	0x3b07a330	0.0020696633
5	0x3b9d5785	0.004801693
6	0x3a8ba770	0.0010654759
7	0x3bf144af	0.007362924
8	0xbb8b2f7b	-0.0042476035
9	0xbb3548f2	-0.0027661887
10	0x3b314111	0.002704684
11	0x3bffd327	0.0078071537
12	0xbbbc3e4e	-0.005744732
13	0x3b18f9d3	0.0023342266
14	0x3a1cb052	0.00059772015
15	0x3c524c2f	0.012835546
16	0x3ae48705	0.0017435258
17	0xbbaf1441	-0.0053429906
18	0x3be409b8	0.0069591664
19	0x3c042ab8	0.008066826
20	0xbb4629a6	-0.0030237227
21	0x39646ff6	0.00021785483
22	0xbaf5d6e0	-0.0018756054
23	0x3bcd791d	0.0062705413
24	0xbb97def2	-0.0046347314
25	0xbae58147	-0.0017509841
26	0x3acc20e1	0.0015573764
27	0xbc31caa1	-0.010851533
28	0x3bec86b3	0.007218206
29	0x3b6f4e91	0.0036515335
30	0x3ba489eb	0.005021324
31	0x3a8812ca	0.0010381576
32	0xb92bc2f5	-0.00016380458
33	0x3a514a65	0.0007983803
34	0x3b0c6dac	0.0021427674
35	0x3b1829bc	0.0023218235
36	0xba0a9134	-0.0005285919
37	0x3b7ec03c	0.0038871905
38	0xbac17aa9	-0.0014761287
39	0x3ad5b3ff	0.0016304253
40	0xbc05466b	-0.008134465
41	0x3ba8a79a	0.005146933
42	0xba817afa	-0.0009878569
43	0xb7df8719	-2.6646581e-05
44	0xbba9d280	-0.0051825643
45	0xba514cbc	-0.00079841516
46	0x3a5ab1bf	0.0008342526
47	0x3b880285	0.004150691
48	0xbb2f8b29	-0.0026785827
49	0x3bc3d069	0.005975772
50	0x3b5d1449	0.0033734015
51	0xba1d6d45	-0.0006005357
52	0xba6c8785	-0.00090228795
53	0xbb3301e9	-0.002731437
54	0xbb1b50f1	-0.0023699368
55	0x3bab0725	0.0052193576
56	0x397ac365	0.00023914648
57	0xbc023173	-0.00794636
58	0xbb6c7451	-0.0036080072
59	0xba9c2d38	-0.0011915332
60	0x3ba42fbe	0.005010574
61	0x39f6a46e	0.00047043286
62	0x3badc127	0.0053025666
63	0xbb16cb6c	-0.0023009432

feature_extract.mlps.0.batch_norms.0.running_mean f4 [64]
0	0x3f84eab6	1.0384128
1	0xbed97730	-0.42473745
2	0xbf870963	-1.054974
3	0x3f1d0ac8	0.61344576
4	0x3e3a0722	0.18166783
5	0xbfd9162c	-1.6959891
6	0xbf776179	-0.96633106
7	0xc01314db	-2.298148
8	0x3f0c6764	0.5484526
9	0xbfba3bf6	-1.4549549
10	0x3fbf9a30	1.4968929
11	0xbf5adeaf	-0.8549604
12	0x3ff04362	1.8770564
13	0x3d7e8ec4	0.06214787
14	0x3f52445d	0.82135564
15	0xbeb270a7	-0.34851572
16	0xbf24dbbc	-0.6439779
17	0xbe6595a7	-0.22420369
18	0xbcc76885	-0.024341831
19	0x3ed30041	0.4121113
20	0x3ed8b9a1	0.42329124
21	0xbeb228b0	-0.34796667
22	0xbef8d48d	-0.48599663
23	0xbea2b7aa	-0.3178075
24	0x3f9ccdf3	1.2250351
25	0xbf58cea4	-0.8469031
26	0xbefaa7cc	-0.48956144
27	0xbfa4c7cb	-1.2873472
28	0xbf96c40e	-1.1778581
29	0xbf83ade6	-1.0287445
30	0xbd2e33ca	-0.04252986
31	0x3fba49ae	1.4553735
32	0xbf198088	-0.5996175
33	0x3f16e8dd	0.5894907
34	0x3fc712fb	1.5552667
35	0xbf22a641	-0.63534933
36	0xbde6ad45	-0.11263517
37	0xbfcc1074	-1.5942521
38	0xbe922b98	-0.28548884
39	0x3fa4f51c	1.2887301
40	0xbe303e46	-0.17211255
41	0x3eb87ce4	0.36032784
42	0x3f17f380	0.59355927
43	0xbf1f607a	-0.62256587
44	0x3fac7c6f	1.3475474
45	0x402817c5	2.6264508
46	0xbfc6b4fa	-1.552398
47	0xbee4d6b4	-0.44695055
48	0xbf29d1d1	-0.6633578
49	0x3eae7c88	0.34079385
50	0x3f4aceec	0.7922199
51	0x3f075abe	0.52872837
52	0xbedaa5e1	-0.4270468
53	0x3f4687a6	0.77550733
54	0x3ff8cebf	1.9438094
55	0x3ebb347a	0.36563474
56	0xbfffd909	-1.9988109
57	0xbeacc4db	-0.3374394
58	0xbfa94d2a	-1.3226674
59	0x3cf6eb44	0.03014148
60	0x3e5bb0a3	0.214541
61	0x400c64aa	2.193644
62	0xbf69ae71	-0.912818
63	0xbf47a2ec	-0.77982974

feature_extract.mlps.0.batch_norms.0.running_var f4 [64]
0	0x3e1b3770	0.15157866
1	0x3e19df96	0.15026698
2	0x3e01e5af	0.12685274
3	0x3e51d5c5	0.20491703
4	0x3e0747d8	0.13211
5	0x3e988a4f	0.2979302
6	0x3e05fb09	0.13084044
7	0x3e8e4dd1	0.27793744
8	0x3df02ea2	0.117276445
9	0x3e261f6b	0.16222923
10	0x3e8617ee	0.26190132
11	0x3dc0ee1b	0.09420415
12	0x3e9ed2a0	0.3102007
13	0x3deba9a8	0.11506969
14	0x3e627298	0.22114027
15	0x3e9bf220	0.30458164
16	0x3ebf643b	0.37381157
17	0x3e755f82	0.23962215
18	0x3e1eba77	0.15500818
19	0x3d148394	0.036258295
20	0x399d5a62	0.00030012714
21	0x3daf142c	0.08548769
22	0x3d08a3b1	0.033359233
23	0x3ab2cf4a	0.0013642099
24	0x3e527637	0.20552908
25	0x3e55a23e	0.20862672
26	0x3db39291	0.0876819
27	0x3e7deee3	0.2479816
28	0x3e97d619	0.2965553
29	0x3e0fe89e	0.1405358
30	0x3d8b3f81	0.06799222
31	0x3def9183	0.11697676
32	0x3d5391ea	0.051652826
33	0x3e8248fa	0.25446302
34	0x3e82288b	0.25421557
35	0x3de797a6	0.113082215
36	0x3bb91f67	0.0056494954
37	0x3e0a3b01	0.1349907
38	0x3e3ca454	0.18422061
39	0x3eadab56	0.3391978
40	0x3e6a49df	0.22879742
41	0x3b0bf3d2	0.0021355045
42	0x3ce76699	0.028247165
43	0x3da545d4	0.08069959
44	0x3dcd12db	0.10013362
45	0x3ebd51f3	0.36976585
46	0x3eafc721	0.3433161
47	0x3e728339	0.2368287
48	0x3ea88070	0.3291049
49	0x3e28040e	0.16407797
50	0x3e4ef40b	0.20210283
51	0x3e914a15	0.28376833
52	0x3c81d023	0.015846318
53	0x3e3f2395	0.18665917
54	0x3e6dbd89	0.23216833
55	0x3e9b823f	0.30372807
56	0x3e898805	0.26861587
57	0x3da36ab5	0.07979337
58	0x3dce8eda	0.100858405
59	0x3e73a321	0.23792697
60	0x3d336c61	0.04380453
61	0x3ebc59ba	0.36787206
62	0x3e52f3bc	0.2060079
63	0x3dd7f3f4	0.10544577

feature_extract.mlps.1.linears.0.weight f4 [64, 64]
0	0x3ddb34e3	0.10703447
1	0x3d868962	0.065691724
2	0x3dcea213	0.10089507
3	0x3df9b972	0.12193574
4	0xbc119c79	-0.008887404
5	0xbd457ca9	-0.04821459
6	0xbd58f417	-0.052967157
7	0x3bae70ec	0.00532352
8	0x3d16d4f2	0.036824174
9	0xbd08759a	-0.03331528
10	0x3d93759a	0.07200165
11	0xbe02bf81	-0.12768365
12	0xbddc9704	-0.107709914
13	0xbd2f56a0	-0.04280722
14	0xbbd0b7b2	-0.0063695544
15	0xbc08ab34	-0.008341599
16	0xbd0edd67	-0.034879114
17	0xbd047901	-0.03234196
18	0xbda7c09e	-0.08191036
19	0x3d1ff9c6	0.039056562
20	0x3d7d8f68	0.06190434
21	0x3cf3987a	0.029735792
22	0xbd07a619	-0.033117387
23	0xbd3f523f	-0.046709295
24	0x3d900e24	0.07033947
25	0xbb740ad3	-0.0037237897
26	0x3b1f7983	0.0024333901
27	0xbb8850e5	-0.004160034
28	0xbd62fa96	-0.05541476
29	0x3d16e6d4	0.03684123
30	0x3de877e0	0.11350989
31	0x3d5ada8c	0.05343108
32	0xbd3a07a5	-0.045417447
33	0x3cbff056	0.02343003
34	0xbd9d4b11	-0.076803334
35	0x3dc4fe0a	0.096187666
36	0xbd2dba78	-0.04241416
37	0x3db097df	0.08622717
38	0xbde4017c	-0.111330956
39	0x3dd7a67d	0.10529802
40	0x3de6a84d	0.112625696
41	0x3d74f91d	0.059807885
42	0x3dc39f25	0.09551839
43	0x3d6b7801	0.05748749
44	0x3dbb5f9b	0.09149095
45	0x3da46f33	0.08029022
46	0xbd2b51e7	-0.041826155
47	0xbdde5d37	-0.10857623
48	0x3d860bf1	0.065452464
49	0xbdf41157	-0.1191737
50	0x3ce41440	0.027841687
51	0xbd95a3ad	-0.07306609
52	0x3d277657	0.040884342
53	0x3a7840fd	0.0009470133
54	0x3db243c7	0.08704334
55	0x3d7886e6	0.060675524
56	0x3c0961e4	0.008385155
57	0xbd936f0e	-0.071989164
58	0x3d8f3416	0.069923565
59	0xbcb55917	-0.022137208
60	0x3da38d01	0.07985879
61	0x3d888576	0.06666081
62	0xbd3449e0	-0.044015765
63	0x3d351f97	0.04421958
64	0xbc94aa3d	-0.018147582
65	0xbdc66164	-0.096865445
66	0xbdc7bca9	-0.09752781
67	0x3dae469f	0.08509564
68	0xbd11af31	-0.035567466
69	0x3dfdc949	0.12391908
70	0xbdd964c6	-0.10614924
71	0x3df40813	0.119156025
72	0xbd2f27eb	-0.042762678
73	0x3d88ca68	0.06679231
74	0xbdf43fa5	-0.11926202
75	0x3db7fc92	0.08983721
76	0x3d236bc5	0.0398977
77	0xbd8ab717	-0.06773203
78	0x3d632856	0.05545839
79	0xbd8d989a	-0.06913872
80	0x3dbf3f7b	0.0933828
81	0xbca21b9f	-0.019788561
82	0xbc83125c	-0.015999965
83	0x3d498cd8	0.049206585
84	0xbd3c49ec	-0.045968935
85	0x3d8bcd0f	0.06826221
86	0xbcb79009	-0.022407549
87	0xbd566ffd	-0.052352894
88	0xbdd1fcb9	-0.10253281
89	0x3de76d02	0.113000885
90	0xbd2fc2f5	-0.042910535
91	0x3dc120e0	0.094300985
92	0x3d0fff9f	0.03515589
93	0xbd9e1a2f	-0.07719838
94	0x3dcc7f73	0.099852465
95	0xbd750d7b	-0.05982731
96	0xbc432946	-0.011911696
97	0x3d27ce0d	0.04096799
98	0xbdd566a8	-0.10419971
99	0xbc55553d	-0.013020811
100	0xbd41d00e	-0.047317557
101	0xbc3de0f7	-0.01158928
102	0xbd31f3fd	-0.043445576
103	0xbddabde4	-0.1068075
104	0xbd89f19d	-0.06735537
105	0x3bc7ac34	0.0060935263
106	0xbcd443bb	-0.025911203
107	0xbd10782e	-0.035270862
108	0x3be530db	0.0069943494
109	0x3c67e40a	0.01415349
110	0xbd86f9ed	-0.06590638
111	0xbd4fcf2c	-0.050734684
112	0x3dd5b245	0.10434393
113	0x3d87fe3b	0.066402875
114	0x3dd119af	0.10209977
115	0x3dce5366	0.10074501
116	0x3de030d0	0.1094681
117	0x3de865c5	0.11347536
118	0xbd62d183	-0.055375587
119	0x3d4a70bc	0.049423918
120	0xbd52ea5e	-0.05149304
121	0xbda221a9	-0.079165764
122	0xbdadf7fd	-0.08494566
123	0xbde03d18	-0.10949153
124	0x3d46e55f	0.04855859
125	0x3d5389ca	0.051645078
126	0x3d52795c	0.05138527
127	0xbd65d9e8	-0.056116015
128	0xbd845b4e	-0.064627275
129	0x3db65ae2	0.08904053
130	0xbd8ae7fd	-0.067825295
131	0x3da0bcc4	0.07848504
132	0xbd8543c1	-0.06507064
133	0xbdc6670e	-0.09687625
134	0xbb925d6c	-0.004466703
135	0x3dd6ee64	0.10494688
136	0x3dda795e	0.1066768
137	0xbe008579	-0.12550916
138	0x3c9517e1	0.018199863
139	0xbe0259f5	-0.12729628
140	0xbdabaea0	-0.083829165
141	0x3d059001	0.032608036
142	0xbc316ef0	-0.010829672
143	0xbd0eabf1	-0.034831945
144	0xbd8d5006	-0.06900029
145	0xbcc33fd4	-0.023834147
146	0x3c8ccc71	0.017187329
147	0xbc77a523	-0.015115055
148	0xbd6d5266	-0.05793991
149	0xbd2fae26	-0.04289069
150	0x3de22c36	0.11043589
151	0x3cb5dcdc	0.02220004
152	0xbcdf1ebf	-0.02723634
153	0xbda8fc50	-0.0825125
154	0xbd41de74	-0.04733129
155	0xbd0196cf	-0.031637963
156	0x3e0152c6	0.12629232
157	0xbdb978fa	-0.090562776
158	0xbd898df6	-0.0671653
159	0xbd9712e6	-0.073766515
160	0xbc754abc	-0.014971431
161	0x3d82c340	0.06384897
162	0xbd2f5773	-0.042808007
163	0xbd238b6f	-0.039927896
164	0xbdec8556	-0.11548869
165	0x3d2931f8	0.04130742
166	0x3bcf283e	0.006321936
167	0xbd5a70e2	-0.05333031
168	0x3decefcb	0.115691744
169	0x3dc168a6	0.09443788
170	0x3a349a4a	0.0006889446
171	0xbd3f7fd8	-0.04675278
172	0x3b5f5971	0.003408041
173	0x3c0f3a1e	0.008741884
174	0xbc9d32e2	-0.019189302
175	0x3df7dc20	0.121025324
176	0x3daf4346	0.08557753
177	0xbd76ecea	-0.060284533
178	0xbda2ae31	-0.079433806
179	0x3d5846be	0.05280184
180	0xba4aea7e	-0.00077406305
181	0xbcbbf437	-0.0229436
182	0xbdc3d48e	-0.09562026
183	0xbd5b4b1f	-0.053538438
184	0x3dfdc9e5	0.12392024
185	0x3dcad909	0.099046774
186	0xbd15ae48	-0.03654316
187	0xbc956b67	-0.01823969
188	0x3d55d93e	0.05220913
189	0x3c3ac91b	0.011400486
190	0x3ce1806d	0.027527058
191	0x3da89d51	0.08233131
192	0x3d939d50	0.07207739
193	0xbd704604	-0.058660522
194	0x3dc95568	0.09830743
195	0x3d1a71f4	0.03770633
196	0xbd85aed1	-0.06527484
197	0xbd092e92	-0.03349168
198	0x3d48c5b9	0.049016688
199	0xbd550359	-0.052005146
200	0xbdac06bc	-0.08399722
201	0xbdb0d737	-0.08634799
202	0x3db02a60	0.086018324
203	0xbdb388dd	-0.08766339
204	0xbe01bf22	-0.12670568
205	0x3da46388	0.080267966
206	0xbdad8020	-0.084717035
207	0x3dee2af3	0.11629286
208	0xbe015221	-0.12628986
209	0x3c97eca8	0.018545464
210	0x3c274aa6	0.010210669
211	0x3ce0aaa3	0.027425116
212	0x3d23d2f1	0.03999609
213	0xbdf76f00	-0.120817184
214	0x3d343be1	0.044002417
215	0xbbbcd00b	-0.0057621053
216	0xbccc8e6a	-0.024970252
217	0x3dd1858b	0.102305494
218	0xbd0833a4	-0.033252373
219	0xbd124aca	-0.035715856
220	0xbdd20a72	-0.102558985
221	0xbde71379	-0.11283011
222	0xbdbf5ced	-0.09343896
223	0x3cdfca36	0.027318101
224	0x3cecdf9d	0.02891522
225	0xbcf06cc2	-0.029348735
226	0xbd97b596	-0.07407682
227	0xbb36dd55	-0.002790292
228	0xbd023836	-0.03179189
229	0x3cb1542d	0.021646583
230	0x3d2e8af0	0.04261297
231	0xbd34341b	-0.043995004
232	0xbd0dc781	-0.03461409
233	0xbdada43e	-0.08478592
234	0x3df2c8fa	0.118547395
235	0x3d6386a7	0.055548336
236	0xbdcfad06	-0.101404235
237	0x3d3ce336	0.046115123
238	0x3d7927b6	0.060828887
239	0x3d65286d	0.055946756
240	0xbcb25a5a	-0.021771599
241	0xbdbf165f	-0.09330439
242	0x3ced6b9f	0.028981982
243	0xbcfb06e8	-0.030642942
244	0xbd21de94	-0.039518908
245	0xbd1b00ba	-0.03784249
246	0xbda248d8	-0.0792405
247	0x3d1c6724	0.0381843
248	0x3d9241e7	0.07141476
249	0x3be6aba2	0.007039503
250	0x3dc3780a	0.0954438
251	0xbd80a8ab	-0.06282171
252	0xbdb4f759	-0.0883624
253	0xbe0119d9	-0.12607516
254	0xbddc7794	-0.10764995
255	0xbdd9093d	-0.10597465

feature_extract.mlps.1.linears.0.bias f4 [64]
0	0xbd956a92	-0.07295717
1	0x3d4151d4	0.047197178
2	0xbc519aa3	-0.012793216
3	0x3d08ec33	0.033428382
4	0xbd4d79de	-0.05016505
5	0xbd94aa9a	-0.07259102
6	0xbd406544	-0.046971574
7	0x3dcb49c5	0.0992618
8	0x3db62a6b	0.08894809
9	0x3cd0390f	0.025417833
10	0x3c2d5ff5	0.01058196
11	0xbca030c9	-0.019554513
12	0x3db8b822	0.090194955
13	0xbd41cba1	-0.047313336
14	0x3d28913e	0.04115414
15	0xbd19db24	-0.037562504
16	0x3df4bdfa	0.11950298
17	0x3c245ad4	0.010031421
18	0x3dca6d07	0.098840766
19	0x3debcd58	0.115137756
20	0xbd72e6f7	-0.059302296
21	0xbdbdd0ad	-0.09268317
22	0x3a645c47	0.000871126
23	0x3ce04308	0.027375713
24	0x3df7fdcf	0.12108957
25	0x3ddb1463	0.10697248
26	0xbda84ef6	-0.082181856
27	0x3da23d67	0.07921868
28	0x3ca78c43	0.020452624
29	0xbd90cecf	-0.070706956
30	0xbdb4b424	-0.088234216
31	0x3db144c6	0.086556956
32	0x3da2243c	0.079170674
33	0xbde1c04d	-0.110230066
34	0xbd9957e3	-0.07487466
35	0x3d84ed2a	0.06490548
36	0x3d5d919a	0.054093935
37	0x3d494a89	0.049143348
38	0xbd64bc83	-0.05584384
39	0x3be9a62e	0.007130406
40	0x3b61074b	0.0034336622
41	0xbb096015	-0.002096181
42	0x3d0b3ac2	0.033991583
43	0xbc307cfd	-0.010771987
44	0x3d9dc1b1	0.07702959
45	0xbdfbf331	-0.123022445
46	0x3dcac049	0.09899957
47	0x3de3f44e	0.11130582
48	0x3c7f8e64	0.015597913
49	0x3d8a0cdd	0.06740735
50	0xbd676cd3	-0.056500267
51	0x3ddee6ea	0.10883887
52	0x3c4213a0	0.011845499
53	0xbde8f5bc	-0.11374995
54	0x3d720048	0.0590823
55	0x3dc4fd69	0.09618647
56	0x3d08d44d	0.03340559
57	0x3d79b3b4	0.060962394
58	0xbbe80fee	-0.007081977
59	0x3d5758d3	0.052574944
60	0x3ddba204	0.107242614
61	0xbdef1934	-0.11674729
62	0xbd969550	-0.07352698
63	0xbde89935	-0.11357347

feature_extract.mlps.1.linears.1.weight f4 [64, 64]
0	0xbcbd89da	-0.023137022
1	0x3daabb58	0.08336514
2	0x3d7c3099	0.061569784
3	0xbc281006	-0.010257727
4	0xbdd68ce2	-0.1047609
5	0xbda80d24	-0.082056314
6	0x3dc8caa0	0.09804273
7	0x3db77151	0.0895716
8	0x3d63433f	0.055484053
9	0xbbdd51ba	-0.0067541273
10	0xbdd0fe9f	-0.10204815
11	0xbdab2ff1	-0.083587535
12	0xbdaa38a0	-0.083115816
13	0x3da06e13	0.07833495
14	0xbd813846	-0.063095614
15	0x3dae04e6	0.08497028
16	0x3def1fe6	0.11676006
17	0x3db1e5b9	0.08686394
18	0xbcf7a02f	-0.030227749
19	0x3b9c62d8	0.0047725253
20	0x3de5ad6a	0.11214717
21	0xbdd28d38	-0.102808416
22	0x3d97f922	0.07420565
23	0x3de27d65	0.11059073
24	0xbc962e07	-0.018332494
25	0xbd7a5ebe	-0.06112551
26	0xbdf0a594	-0.117503315
27	0xbd5db39a	-0.05412636
28	0x3d5a163a	0.053243853
29	0xbd36fb20	-0.044673085
30	0x3d8c0c93	0.06838336
31	0xbd0dcad2	-0.034617253
32	0x3da4d3d8	0.080482185
33	0x3c9973b8	0.018731937
34	0xbdd4cbfb	-0.10390469
35	0xbda8a1e5	-0.08234004
36	0xbd88475c	-0.06654236
37	0x3dcfbce1	0.10143448
38	0xbdcf0b23	-0.10109546
39	0x3d55b06e	0.05217021
40	0xbdc7ac06	-0.09749608
41	0x3d063052	0.032760926
42	0xbcaf437a	-0.02139448
43	0xbd8aa988	-0.06770617
44	0x3dd3ec2c	0.103477806
45	0xbdf232f1	-0.118261226
46	0x3df38cfb	0.11892124
47	0x3cd1c36d	0.025605882
48	0x3c3aff86	0.011413461
49	0xbd6e6fd9	-0.058212135
50	0xbb357a19	-0.0027691184
51	0x3da49280	0.08035755
52	0x3d926c45	0.07149557
53	0x3dff3bba	0.12462564
54	0xbc5a0436	-0.013306668
55	0xba9831d6	-0.0011611532
56	0xbd4de249	-0.05026463
57	0xbddc60fb	-0.10760685
58	0x3d129df3	0.035795163
59	0xbdcc46bd	-0.0997443
60	0x3da8499a	0.082171634
61	0xbc93fab2	-0.018063877
62	0xbc925c5a	-0.017866302
63	0x3d547351	0.051867787
64	0x39a2cbee	0.00031050987
65	0x3db11d60	0.08648181
66	0x3dad2fe5	0.08456401
67	0xbdae8236	-0.085209295
68	0xbddf20b9	-0.10894913
69	0xbdf79a14	-0.12089935
70	0x3df851d1	0.1212498
71	0x3df63509	0.120218344
72	0xbc654bed	-0.013995153
73	0x3d3a74b6	0.04552146
74	0x3d4850e6	0.048905276
75	0xbe0021e7	-0.12512933
76	0x3d1b7163	0.03794993
77	0xbceefcee	-0.02917334
78	0xbdac2219	-0.08404941
79	0x3b8be71c	0.0042694937
80	0x3d95045c	0.07276222
81	0xbdd5995e	-0.10429643
82	0x3d0cf865	0.034416575
83	0xbdaa80c0	-0.08325338
84	0xbd75c10a	-0.05999855
85	0xbd0001db	-0.03125177
86	0x3d88518e	0.0665618
87	0xbdece167	-0.115664296
88	0xbd047ca9	-0.032345448
89	0x3d8918da	0.06694193
90	0x3c67a08d	0.014137399
91	0x3cea579a	0.028606225
92	0x3dbc568a	0.091961935
93	0xbd1e339e	-0.038623445
94	0x3d27441c	0.04083644
95	0xbd9494ae	-0.07254921
96	0xbc8dabf2	-0.017293904
97	0x3bf9b06d	0.0076199085
98	0xbbb3362a	-0.0054691033
99	0xbde1fb62	-0.110342756
100	0x3d92e0af	0.07171761
101	0x3d8d473d	0.06898353
102	0x3d582596	0.05277022
103	0x3d6ec531	0.058293525
104	0xbd16ad40	-0.036786318
105	0x3cbc1804	0.02296067
106	0xbd807fba	-0.06274362
107	0x3d72fff5	0.05932613
108	0xbcebdf31	-0.02879295
109	0x3dee0832	0.11622657
110	0xbda1c9f5	-0.07899848
111	0x3e0571c1	0.13031675
112	0x3dde7eeb	0.108640514
113	0xbd513c91	-0.05108315
114	0x3d7015de	0.058614604
115	0x3d9902e1	0.07471252
116	0xbdfea16c	-0.124331325
117	0x3db42d6a	0.087977245
118	0x3d408cab	0.04700915
119	0xbdc79159	-0.0974452
120	0xbd381f4f	-0.044951733
121	0xbdd4b40f	-0.10385906
122	0xbd3b512d	-0.045731712
123	0xbdc51d7e	-0.09624766
124	0xbd9eb535	-0.07749406
125	0xbd719f37	-0.05898973
126	0xbcad7d93	-0.021178043
127	0xbcb5f5a3	-0.022211855
128	0xbcace476	-0.021105032
129	0x3dc24128	0.09485084
130	0x3d8e2682	0.069409385
131	0xbd1b86cd	-0.037970353
132	0xbda3c108	-0.07995802
133	0x3de239c7	0.110461764
134	0x3df1f187	0.11813646
135	0xbc8e568e	-0.017375257
136	0x3c556020	0.013023406
137	0x3d82ea65	0.063923635
138	0x3d0762ff	0.033053394
139	0x3d50d6fd	0.05098628
140	0x3dcaeff7	0.09909051
141	0x3cf40f79	0.029792534
142	0xbd14748d	-0.036243964
143	0xbdbcb7d8	-0.09214753
144	0x3d68b2f1	0.056811277
145	0xbd19eaae	-0.037577324
146	0xbd87fa53	-0.066395424
147	0x3d88294d	0.066485025
148	0xbddfcf14	-0.10928169
149	0x3d8fd42b	0.0702289
150	0xbc937f8f	-0.01800516
151	0x3df63849	0.12022454
152	0xbd6b7354	-0.057483032
153	0x3dc4a2e3	0.09601381
154	0xbc023a53	-0.007948476
155	0xbdea5b66	-0.11443214
156	0x3adafd38	0.0016707545
157	0xbc7f9bb2	-0.0156010855
158	0x3d0867bb	0.03330205
159	0x3ce73f4d	0.028228426
160	0x3c48cd81	0.012256027
161	0xbddbf3e8	-0.10739881
162	0xbda7b579	-0.0818891
163	0xbd9b7a09	-0.07591636
164	0xbd2ed2ba	-0.042681433
165	0xbd5df93e	-0.054192774
166	0xbd0b964e	-0.03407889
167	0x3d88dd8a	0.0668288
168	0x3d61b46f	0.055103716
169	0xbbd6c26e	-0.0065539395
170	0xbe0e70fa	-0.13910285
171	0x3de60075	0.11230556
172	0x3d7964cb	0.06088714
173	0xbdf44273	-0.11926737
174	0x3dc7bc39	0.097526975
175	0x3de26ca5	0.110558785
176	0x3dcaad1d	0.098963
177	0xbc03d999	-0.008047485
178	0xbdbfb85b	-0.09361335
179	0xbc97db32	-0.018537138
180	0xbddee689	-0.10883815
181	0x3dd53b9f	0.104117624
182	0x3daf71d7	0.08566635
183	0x3c8e0e82	0.017340902
184	0x3c2363c0	0.009972513
185	0xbd405158	-0.046952575
186	0xbd57a35f	-0.052646037
187	0x3da15cc1	0.078790195
188	0x3dc5e569	0.09662897
189	0x3ce8a92a	0.028400976
190	0xbcb0f967	-0.0216033
191	0x390541b9	0.00012708352
192	0xbb096020	-0.0020961836
193	0xbc49014e	-0.0122683775
194	0xbc7d85f2	-0.01547383
195	0x3cccf549	0.025019305
196	0x3ca18f70	0.019721717
197	0x3de27c9e	0.11058925
198	0xbdb823d4	-0.08991209
199	0xbd4b6de0	-0.04966533
200	0x3cf2b132	0.029625509
201	0x3dd4b7c3	0.10386612
202	0x3de96572	0.11396302
203	0x3d902d79	0.07039923
204	0x39b80377	0.00035097796
205	0x3d92d303	0.071691535
206	0xbdb79fd2	-0.0896603
207	0x3c866ead	0.016410196
208	0xbd29bcb9	-0.041439746
209	0x3d8b682a	0.06806977
210	0xbd7dc407	-0.061954524
211	0x3debc172	0.11511506
212	0x3c9a51b5	0.01883779
213	0xbdef6159	-0.116884895
214	0x3ddd1e13	0.10796752
215	0x3a954b2c	0.0011390201
216	0xbe06851f	-0.13136719
217	0x3df65266	0.12027435
218	0xbd82da87	-0.06389337
219	0xbbd44c23	-0.0064788028
220	0x3dfc31e3	0.12314203
221	0xbd2e13c8	-0.042499334
222	0xbdcd9889	-0.100388594
223	0x3df1f15b	0.11813613
224	0xbdc31b8d	-0.09526739
225	0x3df2af6a	0.11849864
226	0x3de98e34	0.11404076
227	0x3da3f31d	0.080053546
228	0x3d88ec63	0.06685712
229	0x3c991f06	0.018691551
230	0xbe01afa0	-0.12664652
231	0xbdd4d069	-0.103913136
232	0x3db5aaf0	0.08870494
233	0x3ddf583c	0.10905501
234	0x3d944007	0.07238775
235	0xbdd88a8b	-0.105733
236	0x3d905437	0.07047313
237	0xbba46071	-0.0050163795
238	0xbc858d58	-0.01630275
239	0xbdeeba09	-0.11656577
240	0xbdae3186	-0.085055396
241	0xbdf8e84b	-0.12153681
242	0x3ccade4a	0.024764199
243	0x3e007424	0.12544304
244	0xbd8397aa	-0.06425412
245	0xbd420fc8	-0.04737833
246	0xbdb3d120	-0.08780122
247	0xbde873be	-0.11350201
248	0x3dc9a43d	0.09845779
249	0x3d8d1b1e	0.06889938
250	0xbbbca50f	-0.005756981
251	0x3d043ce3	0.03228463
252	0x3dadf95f	0.084948294
253	0xbc83df90	-0.016097814
254	0xbdafdd52	-0.085871354
255	0x3cd30415	0.025758782

feature_extract.mlps.1.linears.1.bias f4 [64]
0	0x3da140b6	0.07873671
1	0xbd1114f0	-0.03542036
2	0xbdb7bba1	-0.08971334
3	0x3d421844	0.047386423
4	0x3cffa3da	0.03120606
5	0x3d2fc882	0.04291583
6	0xbca56f87	-0.020194782
7	0xbd914021	-0.0709231
8	0x3cc7a9e8	0.02437301
9	0x3db2cfcd	0.08731041
10	0x3e058cc6	0.13041982
11	0xbdaa2d2e	-0.083093986
12	0xbd0098c1	-0.031395677
13	0x3dc796f1	0.09745587
14	0xbdac915f	-0.08426165
15	0x3dd0f17e	0.10202311
16	0x3d102d07	0.03519919
17	0x3d947c61	0.07250286
18	0xbd3c9fb0	-0.046050727
19	0x3dda3ccd	0.10656128
20	0xbdf52605	-0.11970142
21	0x3daccdbd	0.08437679
22	0x3c3c53ae	0.01149456
23	0x3d149007	0.036270168
24	0x3d8ad92f	0.06779706
25	0xbdf98ada	-0.12184687
26	0x3bc6784b	0.0060568205
27	0x3bbca67b	0.0057571507
28	0x3d119c1e	0.035549276
29	0xbc83ae39	-0.016074287
30	0x3cb45da5	0.02201731
31	0xbbc012da	-0.0058616223
32	0xbde1d9fc	-0.11027905
33	0xbd6cbf49	-0.05779961
34	0x3db4aa20	0.08821511
35	0xbdd1b2e0	-0.10239196
36	0xbd3a4b7a	-0.045482136
37	0xbdc79601	-0.09745408
38	0xbbb37425	-0.005476492
39	0x3d5ef517	0.054432955
40	0xbc534a8c	-0.012896191
41	0x3d840527	0.06446295
42	0xbd9e2bc2	-0.0772319
43	0xbda79b43	-0.08183911
44	0xbddcdc74	-0.107842356
45	0x3d73089b	0.05933438
46	0x3cb428e3	0.021992153
47	0xbdb731f1	-0.089450724
48	0xbdecc2b6	-0.11560576
49	0xbd291362	-0.04127825
50	0xbaf794ae	-0.0018888914
51	0x3db13415	0.08652512
52	0xbda42dea	-0.0801657
53	0x3db1e096	0.086854145
54	0x3d3f2b67	0.04667225
55	0xbdec0f32	-0.11526336
56	0x3d449383	0.04799224
57	0x3da4f5aa	0.08054669
58	0xbd961809	-0.07328803
59	0x3daeb3f8	0.0853042
60	0x3dee3241	0.11630679
61	0xbdba73b6	-0.09104101
62	0x3db895cc	0.090129465
63	0x3d9f72d3	0.07785573

feature_extract.mlps.1.batch_norms.0.weight f4 [64]
0	0x3f7ee19e	0.99563015
1	0x3f7e8663	0.9942381
2	0x3f80b822	1.0056193
3	0x3f7f4aee	0.9972371
4	0x3f7fde04	0.99948144
5	0x3f8058ee	1.0027139
6	0x3f819ed1	1.0126592
7	0x3f7e2755	0.99278766
8	0x3f7f92fb	0.9983365
9	0x3f815884	1.0105138
10	0x3f80245f	1.00111
11	0x3f81191f	1.0085791
12	0x3f7dbf5b	0.9912011
13	0x3f7ea7f1	0.9947501
14	0x3f801df2	1.0009139
15	0x3f7c4be4	0.985533
16	0x3f8088d7	1.004176
17	0x3f7d825b	0.9902703
18	0x3f7fff42	0.9999887
19	0x3f7f18e7	0.9964737
20	0x3f816ff4	1.011229
21	0x3f7e8b1c	0.99431014
22	0x3f7dc418	0.9912734
23	0x3f80aef0	1.0053387
24	0x3f80bfce	1.0058534
25	0x3f7efcf0	0.996047
26	0x3f806a74	1.0032487
27	0x3f82703b	1.01905
28	0x3f80e469	1.0069705
29	0x3f802317	1.0010709
30	0x3f7e4cd4	0.9933598
31	0x3f803474	1.0016007
32	0x3f80bee7	1.0058259
33	0x3f7e5398	0.99346304
34	0x3f7f4b4e	0.9972428
35	0x3f80490f	1.0022296
36	0x3f7e5800	0.9935303
37	0x3f80ef8d	1.0073105
38	0x3f7e81eb	0.9941699
39	0x3f7e5086	0.9934162
40	0x3f80b264	1.005444
41	0x3f7e5c99	0.9936004
42	0x3f7e8659	0.9942375
43	0x3f7cc616	0.98739755
44	0x3f7fe7f2	0.99963295
45	0x3f81a2cc	1.0127807
46	0x3f80ec94	1.0072198
47	0x3f80a119	1.0049163
48	0x3f7faed9	0.9987617
49	0x3f7e0e96	0.99241006
50	0x3f81482e	1.0100152
51	0x3f809e36	1.0048282
52	0x3f80c71d	1.0060765
53	0x3f8098e8	1.0046663
54	0x3f7f437b	0.9971234
55	0x3f7ea940	0.99477005
56	0x3f7e24d7	0.99274963
57	0x3f7ea310	0.99467564
58	0x3f7eea5f	0.9957637
59	0x3f7e6ecd	0.9938782
60	0x3f7d78ca	0.99012434
61	0x3f7d2b69	0.98894364
62	0x3f817cb4	1.0116181
63	0x3f80724d	1.0034882

feature_extract.mlps.1.batch_norms.0.bias f4 [64]
0	0xbc0f52dd	-0.0087477835
1	0xbbbd7689	-0.0057819528
2	0x3c0e0906	0.008669144
3	0xbb8575af	-0.004072867
4	0x3afb0b74	0.0019153194
5	0x3bb55e26	0.005534905
6	0x3b911bfa	0.004428384
7	0xbbf0666b	-0.007336428
8	0x3a094102	0.0005235822
9	0x3bda9872	0.006671005
10	0x39e44fd1	0.00043547017
11	0x3be9f8a3	0.0071402355
12	0xbc23bb04	-0.0099933185
13	0xbb80e5c0	-0.0039336383
14	0xbb097585	-0.0020974588
15	0x3b79d65a	0.0038122148
16	0x3b7bfe6b	0.0038451205
17	0xbbdf65f3	-0.006817573
18	0xba6f5248	-0.00091293873
19	0x3a4823e6	0.0007634744
20	0x3c8c30f5	0.017113188
21	0xbb86df4a	-0.0041159736
22	0xbb6c618f	-0.0036068892
23	0x3bcb9bee	0.0062136566
24	0x3bcf3817	0.006323825
25	0xbbe62162	-0.0070230225
26	0x3b9fe804	0.0048799533
27	0x3b9f706b	0.004865696
28	0xb91d1a36	-0.00014982451
29	0x3b94db41	0.0045427387
30	0xbb62783e	-0.0034556533
31	0x3c35cb51	0.011095838
32	0x3bee6ced	0.0072761686
33	0xbb8edb43	-0.004359634
34	0xbbe977a1	-0.0071248566
35	0x3ba03743	0.0048894
36	0xbbb24806	-0.005440715
37	0x3bd78a78	0.006577786
38	0xbb3e8554	-0.002907117
39	0xbb53dee7	-0.0032328905
40	0x3bfe013a	0.007751611
41	0xbbbb96fa	-0.005724785
42	0xbb522c96	-0.0032070032
43	0xbbcf0490	-0.0063176826
44	0xbb151acb	-0.0022751566
45	0x3c1f8118	0.009735368
46	0x3bfab06b	0.007650425
47	0x3c409520	0.011754304
48	0x3b42542d	0.0029652223
49	0xbbb30612	-0.00546337
50	0x3c0fbbce	0.0087728035
51	0x3b91d81a	0.00445081
52	0x3b9bc050	0.00475315
53	0x3c03eff6	0.008052817
54	0xbb640d45	-0.0034797948
55	0xbbc238f3	-0.005927199
56	0xbbd54f0b	-0.006509667
57	0xbba0ec67	-0.004910994
58	0xbb8a542f	-0.0042214612
59	0xbc18f02f	-0.009334608
60	0xbc0e7a12	-0.008696096
61	0x39915018	0.0002771623
62	0x3c4a593d	0.012350378
63	0x3a4a160e	0.0007708975

feature_extract.mlps.1.batch_norms.0.running_mean f4 [64]
0	0x3f3e0a9e	0.7423495
1	0xbdd452be	-0.10367344
2	0xbe66193c	-0.22470564
3	0xbf846f4f	-1.0346469
4	0xbe3e9106	-0.1861001
5	0xbdfe46ec	-0.12415871
6	0xbdae0fc1	-0.084990986
7	0xbdef285d	-0.116776206
8	0x3f5f93e1	0.8733502
9	0xbe5cd626	-0.21566066
10	0xbf207ca8	-0.6269021
11	0xbef56dc4	-0.47935307
12	0x3b823471	0.0039735367
13	0x3d6e759b	0.058217626
14	0x3f4f870c	0.8106544
15	0x3f72705a	0.94702685
16	0x3ee9b0ca	0.45642692
17	0xbeb4a5fa	-0.3528288
18	0x3f2aeece	0.6677064
19	0xbea8090f	-0.3281941
20	0x3e4facda	0.20280781
21	0xbed54dc2	-0.41660887
22	0xbf3bbd79	-0.7333599
23	0xbf8b8959	-1.090129
24	0xbdb28518	-0.08716792
25	0xbecf37ec	-0.40472353
26	0xbeccd3d5	-0.40005365
27	0x3f16c6d3	0.5889713
28	0xbf3f02a9	-0.74613434
29	0xbc769194	-0.015049357
30	0xbef14585	-0.47123352
31	0xbe3d94d9	-0.18513812
32	0xbf88c74a	-1.0685818
33	0xbf0857f4	-0.53259206
34	0xbe858dd7	-0.26084778
35	0x3e91520b	0.28382906
36	0x3d2ce3a4	0.042209283
37	0xbf341aaa	-0.70353186
38	0x3f4da782	0.8033372
39	0xbe70ec11	-0.23527552
40	0x3ed332b2	0.41249615
41	0x3f85e0af	1.0459193
42	0xbe1f63de	-0.1556544
43	0xbd2232aa	-0.0395991
44	0xbf14dc92	-0.58149064
45	0xbdb346d6	-0.08753745
46	0xbf100a62	-0.5626584
47	0x3ebe4c6e	0.37167686
48	0xbdd4c56b	-0.10389217
49	0x3f23fc3f	0.6405677
50	0xbf58ec37	-0.84735435
51	0xbda5e5cd	-0.08100472
52	0x3f5a0221	0.851595
53	0xbf0677f0	-0.5252676
54	0x3e5f0d21	0.21782352
55	0x3f187263	0.5954954
56	0x3f5ecac2	0.87028134
57	0x3e2a96c6	0.16659078
58	0x3f30cfe9	0.69067246
59	0xbf9c4c66	-1.2210815
60	0x3f27a018	0.6547866
61	0xbe986046	-0.2976095
62	0x3e49e286	0.19715318
63	0x3daa85ad	0.08326278

feature_extract.mlps.1.batch_norms.0.running_var f4 [64]
0	0x3ef1efaf	0.47253177
1	0x3f2d176a	0.6761385
2	0x3ed17dd8	0.40916324
3	0x3ec3d447	0.38247892
4	0x3f5e5e26	0.8686241
5	0x3e93a467	0.28836367
6	0x3e84627b	0.25856385
7	0x3ef5891b	0.47956166
8	0x3efc857a	0.49320585
9	0x3e864157	0.26221725
10	0x3f073540	0.5281563
11	0x3ed8ba87	0.4232981
12	0x3e63659f	0.22206734
13	0x3f5005a3	0.812586
14	0x3e649b9b	0.22324984
15	0x3f9c0ece	1.2192018
16	0x3ebd4dee	0.36973518
17	0x3f2d8757	0.6778464
18	0x3e849b37	0.2589967
19	0x3e7f09da	0.24906102
20	0x3f6f36ea	0.9344317
21	0x3f98d165	1.1938902
22	0x3ef6fb9c	0.48238838
23	0x3f36d356	0.71416223
24	0x3ed0b046	0.40759486
25	0x3f3ca70d	0.736924
26	0x3f7891ce	0.9709748
27	0x3ed47874	0.41498148
28	0x3f04760c	0.51742625
29	0x3f8a33a8	1.0797014
30	0x3e202e77	0.15642725
31	0x3f51fc69	0.8202577
32	0x3e9f6d35	0.31138006
33	0x3f57aaed	0.8424519
34	0x3e671637	0.22567068
35	0x3ed814a9	0.42203262
36	0x3ec54692	0.38530403
37	0x3f6d1334	0.92607427
38	0x3f2fc291	0.6865626
39	0x3ea006a3	0.31255063
40	0x3ee35a41	0.44404796
41	0x3ea6ce0a	0.3257907
42	0x3e90c9bd	0.28278914
43	0x3e7f1e42	0.24913886
44	0x3ed08a1f	0.40730378
45	0x3eefb407	0.46817037
46	0x3e9de1b1	0.3083625
47	0x3df99d64	0.12188223
48	0x3f442c0e	0.7662972
49	0x3e513e00	0.20433807
50	0x3f22f484	0.6365435
51	0x3e8da9e1	0.2766867
52	0x3eea21b9	0.45728853
53	0x3e811682	0.25212485
54	0x3e417d16	0.18895373
55	0x3e06acf3	0.13151912
56	0x3eefec95	0.46860185
57	0x3e7ea323	0.24866919
58	0x3e511e57	0.2042173
59	0x3f1544de	0.5830821
60	0x3e4a706f	0.19769453
61	0x3f178bb3	0.5919754
62	0x3ed8b677	0.4232671
63	0x3f1a5c92	0.602975

feature_extract.batch_norms.0.weight f4 [64]
0	0x3f7f22b7	0.99662346
1	0x3f7f6eb7	0.9977831
2	0x3f80074e	1.0002229
3	0x3f7ed1c4	0.99538827
4	0x3f804410	1.0020771
5	0x3f7fc0da	0.99903643
6	0x3f7e8aa5	0.99430305
7	0x3f7e0d52	0.99239075
8	0x3f7dcb99	0.9913879
9	0x3f808c64	1.0042844
10	0x3f7fa820	0.99865913
11	0x3f802cc9	1.0013667
12	0x3f80047a	1.0001366
13	0x3f7c5680	0.9856949
14	0x3f7fa7b9	0.998653
15	0x3f805085	1.0024573
16	0x3f80f68f	1.0075244
17	0x3f80a1a4	1.0049329
18	0x3f7f4a91	0.99723154
19	0x3f805794	1.0026727
20	0x3f805114	1.0024743
21	0x3f80bf5d	1.00584
22	0x3f7ff71d	0.9998644
23	0x3f80ac90	1.0052662
24	0x3f7e60a3	0.99366206
25	0x3f7d4a6d	0.9894169
26	0x3f817386	1.011338
27	0x3f7f1aa8	0.9965005
28	0x3f816864	1.0109982
29	0x3f7f8f7e	0.99828327
30	0x3f802a27	1.0012864
31	0x3f7e8776	0.99425447
32	0x3f7fb4de	0.99885356
33	0x3f80fba8	1.0076799
34	0x3f806835	1.0031801
35	0x3f801ae9	1.0008212
36	0x3f7e8f62	0.99437535
37	0x3f80758a	1.003587
38	0x3f7f9bdc	0.998472
39	0x3f803b18	1.0018034
40	0x3f8100aa	1.0078328
41	0x3f7f9d34	0.9984925
42	0x3f8038c9	1.001733
43	0x3f7f73b9	0.99785954
44	0x3f7edf72	0.995597
45	0x3f7ff789	0.99987084
46	0x3f7dfd9c	0.992151
47	0x3f8099f4	1.0046983
48	0x3f811258	1.0083723
49	0x3f80039a	1.0001099
50	0x3f80e85e	1.0070913
51	0x3f7ea701	0.9947358
52	0x3f805d60	1.0028496
53	0x3f8035f8	1.001647
54	0x3f7f692b	0.9976985
55	0x3f7f29e1	0.9967328
56	0x3f7fc26d	0.99906045
57	0x3f807d92	1.0038321
58	0x3f7f0ca0	0.9962864
59	0x3f7f9d6f	0.998496
60	0x3f801e4a	1.0009243
61	0x3f7f092b	0.99623364
62	0x3f80b02f	1.0053767
63	0x3f7fca82	0.9991838

feature_extract.batch_norms.0.bias f4 [64]
0	0xbb23fb58	-0.0025021639
1	0x38951806	7.1093484e-05
2	0x3b596faa	0.003317813
3	0xbbb5350d	-0.005530006
4	0x3b27acb6	0.0025585121
5	0xbab04b9b	-0.0013450267
6	0xbb8ccce1	-0.0042968844
7	0xbb8d614f	-0.0043145786
8	0xbc1cab3e	-0.009562312
9	0xbac0eaa5	-0.0014718367
10	0x3a17bf7a	0.0005788725
11	0x3abdf711	0.0014493187
12	0x3aecb9ba	0.0018060722
13	0xba0ead0f	-0.0005442658
14	0x399d67ef	0.0003002281
15	0x3bd1d3e9	0.0064034355
16	0x3c22ae3b	0.009929235
17	0x3add290d	0.0016873196
18	0xbab39a7a	-0.0013702654
19	0xbb878527	-0.004135746
20	0x3b1e7705	0.0024179828
21	0x3aea6adb	0.0017884629
22	0x3a04d195	0.00050666305
23	0x3bcb0f5b	0.006196899
24	0xbbefac5d	-0.0073142485
25	0xbc6aaae7	-0.014322973
26	0x3c1e67b3	0.0096682785
27	0xbb97133c	-0.004610447
28	0x3ba90723	0.0051583215
29	0xbb458468	-0.0030138735
30	0x3a9eb915	0.0012109602
31	0xbb90fe2d	-0.0044248314
32	0xba080a46	-0.0005189519
33	0x3bd0644b	0.006359612
34	0x3b6fa06f	0.0036564132
35	0xba8e755b	-0.0010868715
36	0xb9dba6ea	-0.00041895296
37	0x3b35d0de	0.0027742903
38	0xbc038169	-0.008026459
39	0x3ac15f60	0.0014753155
40	0x3b887b2b	0.0041650734
41	0x3b426853	0.0029664233
42	0x3a85e61b	0.0010215672
43	0x3ae8f84c	0.0017774194
44	0xbc0470e3	-0.008083555
45	0xbb07a616	-0.002069836
46	0xbb9c17be	-0.0047635725
47	0x3bcb9d97	0.0062138545
48	0x3b8804aa	0.0041509466
49	0x3af99153	0.0019040502
50	0x3bedaa4d	0.0072529675
51	0xbb1ee912	-0.0024247807
52	0x3abed947	0.0014560603
53	0x3c3bcbb3	0.01146214
54	0xbb0ffa02	-0.0021969085
55	0xbb525b3c	-0.0032097837
56	0x3ae8656e	0.0017730424
57	0xbb2a4a0d	-0.002598408
58	0xbbc72a1a	-0.006078017
59	0xbb56cbf2	-0.003277537
60	0x3ad65db2	0.0016354828
61	0xbb7bd61b	-0.0038427177
62	0x3bc9d4af	0.006159387
63	0x3b191605	0.0023359072

feature_extract.batch_norms.0.running_mean f4 [64]
0	0x3d356dfc	0.044294342
1	0xbbbced0b	-0.0057655624
2	0xbdf2a94d	-0.11848698
3	0x3e139ce8	0.14415324
4	0xbe6ba17c	-0.2301082
5	0xbc1d6a8a	-0.00960792
6	0xbc2459be	-0.010031162
7	0xbdf0309a	-0.1172802
8	0xbe783026	-0.24237117
9	0x3e76f116	0.24115404
10	0x3d85d2cc	0.06534347
11	0xbdea1a2e	-0.11430775
12	0x3d23338c	0.03984408
13	0xbd96bd7d	-0.07360361
14	0x3e0402c7	0.12891684
15	0xbd87658f	-0.06611168
16	0xbd0f915a	-0.035050727
17	0xbda6f603	-0.08152392
18	0xbe44ee07	-0.19231425
19	0x3eb3f6a2	0.35149103
20	0xbdaee630	-0.085399985
21	0x3ee3f00b	0.44519076
22	0x3ea9a8f2	0.33136708
23	0x3e68805a	0.22705212
24	0x3c2eb9ab	0.010664384
25	0x3f245d79	0.6420513
26	0xbe52b25c	-0.20575851
27	0x3e13751e	0.14400145
28	0x3d81ed6d	0.063441135
29	0xbeb0b672	-0.34514195
30	0x3eb59ad6	0.35469693
31	0x3b3bef27	0.0028676481
32	0xbe745574	-0.23860723
33	0xbe9214e1	-0.28531554
34	0xbc4590de	-0.012058465
35	0xbbedf8a2	-0.0072623054
36	0x3bb1d8ce	0.0054274565
37	0xbeb17511	-0.34659627
38	0x3ec8a9fa	0.39192182
39	0x3df751aa	0.12076123
40	0x3c892ba1	0.016744437
41	0xbe80d9d7	-0.251662
42	0xbdf05d57	-0.11736553
43	0xbd8dae4d	-0.06918011
44	0x3dfa38c4	0.122178584
45	0x3e4b3bf5	0.1984709
46	0x3e144e49	0.14482988
47	0xbe922e19	-0.28550795
48	0x3e2cd1fa	0.16876975
49	0x3e598a6d	0.21244211
50	0x3eb40394	0.3515898
51	0xbdb39de4	-0.087703496
52	0xbd4c1a55	-0.0498298
53	0x3e09890c	0.13431185
54	0x3e3a3a2e	0.18186256
55	0x3ea24c1d	0.31698695
56	0x3c4b5906	0.012411362
57	0xbe18ba04	-0.1491471
58	0x3ed5254e	0.41630024
59	0x3ea65355	0.32485452
60	0xbf04b3bf	-0.5183677
61	0xbd5bb168	-0.053635985
62	0xbe83fbc9	-0.25778034
63	0x3d491751	0.049094502

feature_extract.batch_norms.0.running_var f4 [64]
0	0x3d0f84a6	0.035038613
1	0x3d0d4081	0.034485344
2	0x3db0d9da	0.08635302
3	0x3d26955a	0.040669776
4	0x3e06156c	0.1309411
5	0x3d53e02c	0.05172746
6	0x3d0d6740	0.034522295
7	0x3db4d62a	0.08829911
8	0x3e122af1	0.14274193
9	0x3c5dd8d8	0.013540469
10	0x3ea57c61	0.32321456
11	0x3d190786	0.03736069
12	0x3e561171	0.20905091
13	0x3dce54d6	0.10074775
14	0x3dbdf56b	0.092753254
15	0x3d98c5a1	0.0745957
16	0x3c99de51	0.018782767
17	0x3d247512	0.04015071
18	0x3dcc6910	0.099809766
19	0x3eceb9a5	0.4037601
20	0x3d42ea0b	0.047586482
21	0x3e09caed	0.13456316
22	0x3d07284b	0.03299741
23	0x3d13466b	0.035955828
24	0x3d25165c	0.040304527
25	0x3dfca203	0.12335589
26	0x3dc99087	0.098420195
27	0x3d0b96ae	0.034079246
28	0x3cb4425e	0.022004303
29	0x3d5a910d	0.053360987
30	0x3e267b1a	0.16257897
31	0x3d2ec353	0.042666744
32	0x3e4db1bd	0.20087333
33	0x3eb8d71f	0.36101624
34	0x3de7b877	0.11314481
35	0x3d09142b	0.0334665
36	0x3d5a15bf	0.053243395
37	0x3cd49a78	0.025952563
38	0x3d976afa	0.07393451
39	0x3db7a7d9	0.08967561
40	0x3db291be	0.08719204
41	0x3db551be	0.08853482
42	0x3cd09d97	0.02546577
43	0x3e495a9f	0.19663475
44	0x3ca65179	0.020302521
45	0x3dab3945	0.08360533
46	0x3e052957	0.13004051
47	0x3d854be3	0.06508615
48	0x3e6a686f	0.22891401
49	0x3d45c9fe	0.048288338
50	0x3e11e6d2	0.14248207
51	0x3cca541e	0.024698313
52	0x3da30a3e	0.07960938
53	0x3e27094d	0.16312142
54	0x3d755da2	0.05990375
55	0x3e0d3d9d	0.13793035
56	0x3c317d3a	0.010833079
57	0x3d96f5b6	0.073710844
58	0x3d86df38	0.06585544
59	0x3e0740b6	0.13208279
60	0x3ce1c8a5	0.027561495
61	0x3e1facd7	0.15593277
62	0x3f2991f3	0.66238326
63	0x3e8c9e1b	0.27464375
