L2D/SavedNetwork/stoch10_10_1_99.pth (torch, 93226 bytes, 30 tensors)

feature_extract.mlps.0.linears.0.weight f4 [64, 2]
000000 a0 ad 9b be 7b 4c d5 3e 98 35 ff 3e c4 db 74 be
       -0.30405903 0.41659912 0.49845576 -0.23911959
000010 b5 7c 97 3d ce c6 d8 be 59 39 09 bf 3c b4 b1 3e
       0.07396833 -0.42339176 -0.5360313 0.3470782
000020 f8 d4 01 3f 67 53 c6 bc c9 0a 32 bf 73 96 4a be
       0.5071559 -0.024209691 -0.69547707 -0.19783954
000030 c1 37 d9 be 5e 65 43 be 44 a6 58 be 96 30 14 bf
       -0.4242535 -0.19081637 -0.21157175 -0.57886636
000040 85 7f c7 be 7f aa 8f 3e c8 73 b8 be 4d b4 a8 be
       -0.38964477 0.28059766 -0.36025834 -0.3295006
000050 52 fd ce be b4 b9 0b 3f 4b 11 a2 be 71 0e 5a be
       -0.40427643 0.54580235 -0.31653818 -0.21294571
000060 5d 60 0c be ac e9 2a 3f 85 9e d1 be de c8 80 3e
       -0.13708635 0.66762805 -0.40941253 0.2515325
000070 1c f1 1c 3f ea 7f 11 3e cf 33 36 3f 49 bd ac be
       0.61305404 0.14208952 0.71172804 -0.33738163
000080 ab a3 07 3f d3 4a 21 bf b7 fb c8 3e d0 8a 05 bf
       0.5298411 -0.630048 0.39254543 -0.52164936
000090 06 7a 0c bf 53 35 08 3e 56 77 48 bb e6 73 69 3e
       -0.54873693 0.13301592 -0.0030588708 0.22798118
0000a0 60 4f 70 3c 7a 39 74 3c 27 78 af be 83 e0 69 3e
       0.014667362 0.014906282 -0.34271356 0.2283955
0000b0 6a 03 5d be cb 60 10 3e b5 d8 a8 3c 9f e6 2f bd
       -0.21583334 0.14099424 0.020611146 -0.042944547
0000c0 9c 81 a2 be ab 65 00 3f 74 fa 21 bf 32 f7 87 bc
       -0.3173951 0.50155133 -0.63272786 -0.016597364
0000d0 4a 3c c5 3e 4c 45 32 be 39 d0 f1 3e e3 78 f9 be
       0.3852256 -0.17409247 0.47229174 -0.48725042
0000e0 76 2c 1c bf 74 94 a5 be f6 48 04 bf b3 9d d5 bc
       -0.6100534 -0.32339823 -0.5167383 -0.026076173
0000f0 fa 1a 92 be 83 75 66 3e 3b fc db 3e 42 6a 07 3e
       -0.28536206 0.22505765 0.42965874 0.13224128
000100 d3 cb a9 bc e7 a3 87 be 67 d0 b7 be 64 50 0e 3f
       -0.020727074 -0.26492235 -0.35901186 0.55591416
000110 4f 66 04 3f 05 99 b4 3e b5 62 a9 be ca 74 7e be
       0.5171861 0.35272995 -0.3308312 -0.24849239
000120 70 3f a4 3d 71 aa 49 3d e0 1b 45 bd 72 d5 db be
       0.08019912 0.04923481 -0.048122287 -0.42936283
000130 48 9d f4 be a0 ac b9 3e df bf ce 3e 7e 59 0f 3f
       -0.47776246 0.36264515 0.4038076 0.5599593
000140 fb 20 29 3f 5a 18 27 be bf 7c 79 bd 6a 05 cf 3c
       0.6606595 -0.16317883 -0.060909983 0.025271136
000150 19 e0 13 3e c4 ad 11 3e 82 d2 d7 3c 5b cf ac be
       0.14440955 0.14226443 0.026345495 -0.3375195
000160 c8 6d 53 bc 00 d4 c1 3e 22 3d aa 3e fa 59 21 3f
       -0.012904592 0.37857056 0.33249766 0.6302792
000170 ba ad a1 3e b0 50 2d bf 4d 01 95 3e b6 0c 0e bf
       0.31577855 -0.67701244 0.29102555 -0.55488145
000180 82 89 0d 3f 97 66 0e bf a2 32 0d bf 06 18 2b 3e
       0.55287945 -0.5562529 -0.55155385 0.16708383
000190 2a 26 0d 3e f2 f3 01 3f ab 6c ef be c6 f1 0b 3f
       0.1378409 0.50762856 -0.46762595 0.5466579
0001a0 3d 50 fd 3d 37 68 f7 bd a3 8a 02 bf 03 8a aa 3e
       0.1236882 -0.12080424 -0.5099279 0.3330842
0001b0 c8 5c be 3d 00 b2 0e 3f 32 b9 cf be b8 4e 1a 3f
       0.0929504 0.55740356 -0.4057098 0.60276365
0001c0 0e b3 f4 be f3 65 d3 be 2a ce c9 3e 2c 87 b9 bd
       -0.47792858 -0.4128872 0.39415103 -0.09058985
0001d0 c9 07 db be 45 d6 5d bd 9f fd 2d 3f 67 14 32 bd
       -0.42779377 -0.05415942 0.6796512 -0.04347649
0001e0 43 9f 7a 3e c2 a1 27 be 96 2c 21 3e 86 84 31 3f
       0.24474816 -0.163703 0.15739664 0.6934284
0001f0 49 17 b0 3e 9d 6c fb be b7 5a d7 be 46 0b d4 bd
       0.34392765 -0.49106303 -0.42061397 -0.10353713

feature_extract.mlps.0.linears.0.bias f4 [64]
000000 7d 06 a4 3e f8 2e c7 be 31 bd 43 bd f6 05 b2 3e
       0.320362 -0.38903022 -0.04778785 0.34770173
000010 5b 55 b2 be 71 b7 c5 be 7d da 52 3c d3 b0 14 bf
       -0.34830746 -0.38616517 0.0128694745 -0.5808231
000020 75 ff 94 3e 6d 32 49 be ce d4 10 3f d9 a2 51 3d
       0.29101148 -0.19648142 0.56574714 0.051180694
000030 3c 77 ac 3e 18 fc f7 bd 81 6f 80 be 0f 99 9b be
       0.3368472 -0.1210863 -0.2508507 -0.30390212
000040 05 47 b0 3e 1f 71 24 3f ee 8f 82 3e 08 f8 24 be
       0.34429184 0.6423511 0.25500435 -0.16110241
000050 ee 44 bc 3e c2 fd 08 bf 02 3a 1b bf 8d 93 72 be
       0.3677134 -0.53512204 -0.6063539 -0.23689099
000060 f9 1c a0 3e c1 4e 97 bd f6 45 fb be 76 ef 15 bf
       0.31272104 -0.07388068 -0.49076813 -0.58568513
000070 44 cf b3 3e fa dd ba be 61 e2 92 be ff 12 20 3f
       0.3511907 -0.3649748 -0.28688338 0.62528986
000080 76 7e d3 3d 1b 6f d3 be 80 be 6e 3d b6 51 c6 3e
       0.10326855 -0.41295704 0.058287144 0.38734215
000090 99 d5 a8 be b6 c3 e2 be 27 2e 29 bf 0d 77 19 bf
       -0.32975462 -0.4428994 -0.6608605 -0.5994728
0000a0 a3 0f 07 bf 6a ad bb 3e 25 57 81 3d 23 a5 5c 3e
       -0.52758235 0.36655742 0.063154496 0.2154737
0000b0 f9 65 cd 3e aa 24 23 3f 36 54 41 be 03 f7 21 3f
       0.4011686 0.6372782 -0.1887978 0.63267535
0000c0 75 d7 e4 3d ce cc 10 3f b6 aa 28 bf 54 f0 9e be
       0.11173908 0.5656251 -0.65885484 -0.3104273
0000d0 7c 2c 89 be e9 97 04 3f 25 05 d5 3e c5 76 32 bf
       -0.2679175 0.51794297 0.41605487 -0.6971248
0000e0 95 32 cc be 5c 6f 0d bf 82 92 31 bf ec 2f 28 bf
       -0.3988234 -0.55248046 -0.6936418 -0.6569812
0000f0 db bc ac 3e df 23 7e 3e 23 4c 5e bd 4e c2 f2 bc
       0.33737835 0.24818371 -0.05427183 -0.029633667

feature_extract.mlps.0.linears.1.weight f4 [64, 64]
000000 b1 e5 7d bd 3f 50 67 3d ad ac e2 bd 6b 97 b8 bd
       -0.06198663 0.056473013 -0.110680915 -0.09013256
000010 c9 c2 e2 bd d1 6e 72 bd 51 42 d1 bd bb fd 9d 3d
       -0.110723086 -0.059187714 -0.10217727 0.07714411
000020 49 ce ef bd ff cf 0c 3c 4d 4b 01 3d d9 04 33 bb
       -0.11709268 0.008594512 0.031565953 -0.0027316122
000030 f1 6d 84 3d aa a5 f7 3d db 5e 71 3d 61 2a b4 3c
       0.06466282 0.12092145 0.05892835 0.021992864
000040 99 51 58 bd 38 f1 7f bc 85 75 f6 3d 27 ef 4b 3d
       -0.052812193 -0.015621476 0.12034134 0.04978862
000050 45 06 1f bd 2a 35 2c bc 7e 6d d8 bd 8b 42 cb bd
       -0.03882434 -0.010510722 -0.10567759 -0.099248014
000060 33 15 a2 3d 5a e2 78 3c fe c9 aa 3d 79 a8 96 3d
       0.079142 0.015190685 0.08339308 0.07356352
000070 44 2c b5 bc 7d 6a d8 3d 0a 5f 2c 3d 6b 11 ae 3d
       -0.022115834 0.10567186 0.042082824 0.08499416
000080 9e e3 9d 3d a8 c2 f5 3d eb 98 b1 bd 8c 25 aa bc
       0.0770943 0.12000018 -0.08671745 -0.020769857
000090 37 6b 7a 3d 2d 76 e6 bd 95 7c e9 3c 9a 46 e2 bd
       0.061137404 -0.11253009 0.028501788 -0.110486224
0000a0 5b 2f 88 bd cc 7c 41 bd ce e9 86 bd b3 7a fd 3c
       -0.06649657 -0.047238156 -0.065875635 0.030942297
0000b0 f8 5a d3 3d 3f 06 e3 bd bf e0 ac 3d f9 60 3c bd
       0.10320085 -0.11085176 0.084413044 -0.045990918
0000c0 c2 2c 8a bc 3b 3c 8d bc 3b 2c da bc 4b d3 8f b9
       -0.016867045 -0.017240634 -0.026632419 -0.0002743251
0000d0 c3 de 22 bd 69 83 a3 bd 2c 95 93 3b 93 92 77 3d
       -0.039763223 -0.07984049 0.0045038667 0.06044252
0000e0 1f 50 a3 3c 12 64 6d 3d f3 bb 19 bd 2a 9e 38 3b
       0.019935666 0.057956763 -0.037532758 0.0028170445
0000f0 6d 59 97 3d 04 e0 ee 3d 25 22 f8 bd 42 70 b9 3d
       0.073901035 0.11663821 -0.121158876 0.090546146
000100 f5 3d b6 3d 19 63 a9 bd 79 e3 30 bd c4 17 38 3d
       0.08898536 -0.082708545 -0.043185685 0.04494454
000110 87 cd 9d 3d ba cb f4 bd 32 1d 06 3c 2e 8c f0 bb
       0.07705217 -0.1195292 0.008185672 -0.0073409295
000120 96 06 21 bc ef a8 cf 3d 15 fb 67 3b 90 a5 5e bd
       -0.00982823 0.101396434 0.003539746 -0.05435711
000130 62 29 b4 3d 7e ce 12 bd ee 40 ae 3d 79 54 da 3d
       0.08796956 -0.035841458 0.08508478 0.10660643
000140 0b 0a 40 3d 5f cf 9d bd df 34 73 bd de 00 ce bd
       0.046884578 -0.077055685 -0.059376594 -0.10058759
000150 e2 b0 8a bd 1d 82 f6 bd 50 32 93 3a 99 3d 44 bd
       -0.06772019 -0.12036536 0.0011230204 -0.047910307
000160 a0 5f d7 3d db 87 c0 3c cc 2c 5b bd da b1 fa bd
       0.10516286 0.023502281 -0.05350952 -0.12240954
000170 55 52 74 3d b4 75 e7 bd 6e 51 44 bd 39 74 45 3d
       0.05964883 -0.11301747 -0.04792922 0.04820654
000180 7a 68 67 3d a8 e6 23 bd 6b bf a6 3d 07 3f 81 bd
       0.05649612 -0.040014893 0.08141979 -0.0631085
000190 1b 9d 9c bd 20 9e a0 3d 42 8a 87 3b cf ec 40 3d
       -0.07647153 0.0784266 0.0041363547 0.04710084
0001a0 dd 62 7b 3c a0 44 11 3d b6 fc 9c bd d3 e1 16 3d
       0.015343395 0.035465837 -0.07665388 0.036836457
0001b0 a0 b1 ab bc 61 52 af bd c3 e9 f2 3d a5 59 99 3d
       -0.020958722 -0.085606344 0.11860993 0.074878015
0001c0 43 bf 47 3a 83 d0 ea 3d 7f 4c f7 bd 18 be a9 3d
       0.0007619748 0.11465552 -0.12075137 0.08288211
0001d0 a3 3f 59 bb cf 6d a8 bd 00 a0 f9 3d f1 cf dc 3d
       -0.0033149503 -0.08224069 0.12188721 0.10781849
0001e0 7f 32 53 bd ff a2 80 bd 00 51 51 bd ac f5 2f bd
       -0.05156183 -0.06281089 -0.05110264 -0.0429589
0001f0 0a c5 0f 3d be 97 40 3d d2 22 c0 3c 12 04 fc bd
       0.03510002 0.047019713 0.023454104 -0.12305464
000200 df de 9d bd c3 12 fe bc 53 c8 80 bc f1 c2 09 bc
       -0.07708525 -0.031014806 -0.015720522 -0.008408294
000210 b3 7b 99 3b 25 62 a7 bc 4f 47 bc bd 51 ce 24 3d
       0.0046839355 -0.020432541 -0.091932885 0.04023582
000220 1b c3 c7 bd 6b fd c6 bd 56 c9 4d 3c dd e6 ed 3d
       -0.0975401 -0.097163044 0.012560209 0.11616299
000230 fe 86 4f bd 5a 8e d4 bd 2e 19 0f 3b 74 df 7f 3d
       -0.050665848 -0.10378714 0.0021835077 0.06246896
000240 aa e3 19 3d b9 b9 37 ba 35 33 9b bd 3a a8 b0 3b
       0.037570633 -0.0007008571 -0.07578126 0.005391148
000250 8d 1f 38 3c 15 c8 df bd 7b 0c 41 3d 2f 4a f9 3c
       0.011237991 -0.109268345 0.047131043 0.030430881
000260 70 0a 52 3d 8e 90 b0 3d 6f 17 32 bd a5 0d 5f 3d
       0.051279485 0.086213216 -0.04347938 0.05445637
000270 3b 5c c2 3d 0b 91 f6 bd 0e 60 d7 bd 69 66 76 3c
       0.09490248 -0.120393835 -0.10516368 0.015039065
000280 92 65 4f bd fd cc a0 3d 18 a8 01 3e 0c a6 4c bc
       -0.050633974 0.078515984 0.12661779 -0.012490761
000290 e8 0b 72 3c 2e 65 a8 bd 4b ce ea 3d 41 e2 ec bc
       0.0147733465 -0.082224235 0.114651285 -0.02891648
0002a0 d9 5e 96 bd 7b 97 f7 bd fc e2 96 bd b3 ff 5e bc
       -0.073423095 -0.120894395 -0.073675126 -0.013610768
0002b0 5a 19 7f bd a2 7e 17 b7 7d e7 a6 3b 2c fa 86 bb
       -0.062280037 -9.029785e-06 0.0050935135 -0.0041191783
0002c0 7c 7a d1 3b d8 6f 52 bc b2 1e 86 3d 84 80 f0 bd
       0.006392775 -0.012844048 0.065488234 -0.117432624
0002d0 f2 31 ae bd dd 21 88 bc 57 5c 87 bd 3f 91 b5 3d
       -0.0850562 -0.01661771 -0.06609409 0.08865594
0002e0 fe 84 a8 3d ca 55 13 3d 7a ee 2d bd 33 0c 96 ba
       0.08228491 0.035970487 -0.042463757 -0.0011447727
0002f0 f9 3e c7 3d e2 5c 27 3c f7 5a ce 3d 36 e3 d4 3d
       0.09728808 0.010215016 0.10075944 0.103948995
000300 20 25 a1 3c dd 00 bd 3d 5b 9f 86 bb cf fa a0 bc
       0.019671023 0.0922868 -0.004108352 -0.019650845
000310 fd 70 d8 bb a4 5b ce bd 9e ee db 3d 09 31 ff 3d
       -0.006605266 -0.10076073 0.10738872 0.124605246
000320 30 87 aa bc 17 88 ac bd f3 7a 21 bd c9 b0 6b bb
       -0.020816416 -0.084243946 -0.039423894 -0.0035963526
000330 56 de ce bd 14 27 40 3d 7d f7 97 bd 7d 19 8f 3d
       -0.10101001 0.046912268 -0.074202515 0.069872834
000340 3f 3e d0 3c a4 4f b0 3d 21 04 72 3d b0 32 cd 3d
       0.025420306 0.0860894 0.05908597 0.100194335
000350 1f 48 df 3d c1 78 8c 3d f2 6d a2 bd 0f e5 96 bd
       0.10902428 0.068589695 -0.07931127 -0.07367908
000360 44 43 43 3d 4e 34 d5 3d 03 6c 99 bd bd 6c a2 bd
       0.04767157 0.10410367 -0.07491305 -0.079308964
000370 72 6f f0 bd 4e d5 ce 3c ba 65 ab bd 17 a5 78 bd
       -0.117400065 0.025248196 -0.08369012 -0.060704317
000380 81 36 15 3d 0f 61 90 bd df d4 c3 3d a5 ad 35 bc
       0.036428932 -0.070497625 0.09562086 -0.011088763
000390 37 a0 e9 3c 27 d2 1b 3d ef 61 de 3b e8 0c 9d 3d
       0.02851878 0.038042214 0.006786577 0.07668477
0003a0 5b 3b e2 bd 84 02 9d 3d bf 38 63 3d 4c 42 66 3c
       -0.110464774 0.076664954 0.05547404 0.014053892
0003b0 4a 52 89 3d 27 e4 cc 3d 63 9d 6e bd 35 4a f1 3d
       0.067051485 0.10004454 -0.058255564 0.11781732
0003c0 db d5 b1 bc ca cc e7 bd 72 ee 68 3d d4 f1 97 bd
       -0.02170842 -0.11318357 0.056868024 -0.07419172
0003d0 60 e4 23 3c e9 24 be bd 64 a4 9f 3c ef bd 75 3c
       0.010003179 -0.09284384 0.019487567 0.014998897
0003e0 24 90 e5 bd 65 d0 57 bd ef dd 4b bd d5 c9 bf bd
       -0.11209133 -0.052688975 -0.0497722 -0.09364668
0003f0 e2 36 f5 3c 85 78 3a bd ba be 2e 3c 2f 29 92 3d
       0.029933397 -0.045525093 0.01066559 0.071367614

feature_extract.mlps.0.linears.1.bias f4 [64]
000000 b3 0e 22 3d 7b f1 5a 3d 54 74 52 3c 85 3a ce 3d
       0.0395648 0.05345295 0.012845118 0.100697555
000010 7c 2e b2 bd 39 c4 ed 3c cd f3 d8 3c b5 cc be 3c
       -0.087002724 0.02902423 0.02648344 0.023290971
000020 bc 43 a6 3d f0 2b dc 3d 45 17 ae 3d d8 a9 99 bc
       0.08118388 0.10750568 0.08500532 -0.018757746
000030 82 a0 e1 3d e7 f3 4a 3d cd 4e 24 3d 68 37 83 3b
       0.110169426 0.04954901 0.040114213 0.0040044077
000040 c7 11 85 bd da 83 94 3d 92 44 09 3d 0c c0 cf 3c
       -0.064975314 0.07251711 0.03351266 0.02536013
000050 db 3f 1e bd b9 3f eb 3d 76 de b1 3d 8c 6a f2 3d
       -0.038635116 0.114867635 0.08685009 0.118367285
000060 12 ef f2 bc 9f de 27 3d 54 15 49 bd dc f8 bb 3d
       -0.029655013 0.040983792 -0.049092606 0.091783255
000070 eb 0d e1 3d cf 37 0e 3d d6 f4 d6 3d 4f a0 c0 bd
       0.10988983 0.034721192 0.104959175 -0.094055764
000080 a5 be f6 3c 5e 4b 86 3d 27 0f a8 bd 00 0b 37 bb
       0.030120203 0.06557344 -0.08206015 -0.002793014
000090 16 14 83 3d 25 d8 19 bd 26 00 b4 bd 72 49 8c 3d
       0.064003155 -0.037559647 -0.08789091 0.06849946
0000a0 19 9a bc bd a4 3c fa bb ff 0b e8 3d b4 7c 08 bd
       -0.09209079 -0.0076366235 0.11330413 -0.03332205
0000b0 03 5b 0a bc 9e 95 e7 3c 6e 92 e4 bd ea 8b e1 bd
       -0.00844455 0.028269585 -0.11160742 -0.110130146
0000c0 f0 07 31 bd c5 4c cc 3c 94 25 00 3e 5c e4 21 3d
       -0.04322046 0.02493895 0.12514335 0.03952442
0000d0 94 01 fc bd 7a fe ba 3d 52 dc 4c bd e6 86 3e 3c
       -0.123049885 0.09130569 -0.0500148 0.011628842
0000e0 bc c7 b5 3d 1d 09 8e 3d 56 38 52 3d 8b 54 f4 3c
       0.08875987 0.06935332 0.051323257 0.02982547
0000f0 00 b3 d1 bd 1e 44 ec bc ec 03 d8 3d 9c 1b f8 bd
       -0.1023922 -0.028841075 0.10547623 -0.12114641

feature_extract.mlps.0.batch_norms.0.weight f4 [64]
000000 f1 05 80 3f 64 f1 7d 3f 0d 1c 80 3f 3b 0c 80 3f
       1.0001813 0.9919646 1.000856 1.0003732
000010 3d 5d 7e 3f 6a 8c 80 3f d8 cc 7f 3f 99 9e 80 3f
       0.9936102 1.0042851 0.9992194 1.00484
000020 38 e3 7e 3f 4b 27 80 3f 5a 6d 80 3f 99 10 81 3f
       0.9956546 1.0011991 1.0033371 1.008319
000030 92 f5 7e 3f 41 18 80 3f e1 63 80 3f 18 14 80 3f
       0.9959346 1.0007402 1.0030481 1.0006132
000040 59 26 80 3f d6 3f 7f 3f ae 4c 80 3f ac b6 80 3f
       1.0011703 0.9970678 1.0023401 1.0055747
000050 16 08 80 3f 17 8e 7f 3f 7d 2b 7f 3f 93 cd 80 3f
       1.0002468 0.99826187 0.9967573 1.0062736
000060 19 c2 7e 3f c0 3d 7f 3f 4f bb 80 3f 57 04 7f 3f
       0.9951492 0.997036 1.0057162 0.99616
000070 b6 b2 80 3f 42 ca 7f 3f 88 39 80 3f 67 fd 7d 3f
       1.0054538 0.99917996 1.0017557 0.99214786
000080 83 3c 80 3f b8 74 80 3f d1 31 80 3f 59 82 80 3f
       1.0018467 1.003562 1.0015203 1.0039779
000090 23 90 7f 3f 68 51 80 3f 9e a9 7e 3f 96 57 80 3f
       0.9982931 1.0024843 0.99477565 1.0026729
0000a0 9f db 7f 3f 67 19 80 3f 75 0b 80 3f 14 4e 80 3f
       0.9994449 1.0007752 1.0003496 1.0023828
0000b0 2f 41 7f 3f ea 6d 7f 3f 20 9a 7f 3f c6 89 80 3f
       0.9970884 0.9977709 0.9984455 1.0042045
0000c0 f3 fa 7e 3f 0a cb 7e 3f c6 4d 80 3f 9d 85 7f 3f
       0.9960167 0.99528563 1.0023735 0.9981325
0000d0 8c 3e 80 3f 0e 9c 80 3f 44 12 7f 3f b2 66 80 3f
       1.0019088 1.0047624 0.99637246 1.003134
0000e0 5a 05 80 3f 85 0a 81 3f 2f ff 7e 3f 51 88 7e 3f
       1.0001633 1.0081335 0.9960813 0.9942675
0000f0 df 01 80 3f 64 fd 7f 3f 9e e3 7f 3f 9d 31 7f 3f
       1.0000571 0.9999602 0.9995669 0.9968508

feature_extract.mlps.0.batch_norms.0.bias f4 [64]
000000 23 03 2b 3b cd 3f 86 b8 68 30 1c ba 8e 58 6b ba
       0.00260944 -6.401502e-05 -0.0005958141 -0.0008977734
000010 aa f7 43 bb 4a 9e d4 3b 6a 3a ff 3a 70 0f c5 3b
       -0.0029902258 0.006488596 0.0019472365 0.006013803
000020 bb a9 c2 bb 17 0b 25 bb 11 9c 91 3b 3e c8 f6 3b
       -0.0059406436 -0.0025183612 0.0044436534 0.007531195
000030 8f 73 8e bb 83 43 33 3b 0b 57 17 3b 86 65 45 3c
       -0.0043472718 0.0027353473 0.0023092653 0.012048131
000040 8a 67 19 3b 93 c6 d5 bb 73 54 09 3c 02 c1 a7 3b
       0.0023407661 -0.006523916 0.008381951 0.005119444
000050 4c 72 7e bb 08 63 15 3b fa 0d 30 bb 2d c0 ff 3b
       -0.003882545 0.0022794623 -0.00268638 0.0078048916
000060 4b 05 3f bb 07 a4 ff ba 46 a7 fd 3a df 28 f9 bb
       -0.0029147442 -0.001950384 0.001935222 -0.007603749
000070 44 b9 f0 3b a5 53 3e 3b 5e fb e5 3b b0 a2 38 3a
       0.007346304 0.0029041555 0.0070184907 0.00070432853
000080 33 f3 44 3b ae 0e a7 3b 6c 66 6e 3b c9 4c ee 3a
       0.0030052185 0.0050981855 0.0036376966 0.0018180843
000090 17 53 1c 39 38 40 90 3b 1b 98 d9 bb 8c 99 5c bb
       0.00014908273 0.0044021867 -0.006640447 -0.0033660857
0000a0 c0 b8 eb bb 6b 61 c2 3b 3a e7 9c ba 54 21 a0 3a
       -0.007193655 0.0059320233 -0.0011970766 0.0012216964
0000b0 9d b5 07 bb b3 a3 70 ba cb 02 c9 3a f5 b9 a5 3b
       -0.0020707615 -0.00091796665 0.0015335915 0.005057568
0000c0 23 ab a5 bb a3 59 d9 3b 4c c8 66 3b 14 e1 ff 37
       -0.0050558015 0.006633 0.00352146 3.0503179e-05
0000d0 4b c6 eb ba 5a 03 0a ba 8b fb 19 bb c9 d8 57 3b
       -0.0017988173 -0.00052647816 -0.0023495879 0.003293561
0000e0 67 0f cb ba 11 e8 b7 bb 96 fb 7a bb db 94 31 bb
       -0.0015492261 -0.0056123813 -0.003829693 -0.0027096781
0000f0 d8 18 9b 3b 17 fd cb 3b cd 8f 9a 3b 8a c7 98 ba
       0.004733186 0.006225239 0.0047168494 -0.0011656147

feature_extract.mlps.0.batch_norms.0.running_mean f4 [64]
000000 14 1e 89 3f fa ef e8 be 74 b3 89 bf ea 97 27 3f
       1.0712304 -0.45495588 -1.075789 0.6546618
000010 4e 85 23 3e 43 39 d8 bf a5 53 77 bf 9b ad 15 c0
       0.1596882 -1.6892475 -0.96612006 -2.338721
000020 e5 a3 16 3f 37 d3 bb bf 22 7b c5 3f 3c 50 5d bf
       0.58843833 -1.4673833 1.5428202 -0.8645055
000030 f0 a7 f7 3f f1 45 9f 3d 2f 21 50 3f 2d 5a c6 be
       1.9348125 0.07777012 0.81300634 -0.38740674
000040 97 60 36 bf ab af 91 be 83 68 69 bc 3d 25 de 3e
       -0.71241134 -0.28454337 -0.014246109 0.43387786
000050 fd c3 d8 3e 01 c7 a4 be 26 80 f5 be 58 1c a7 be
       0.42337027 -0.32183078 -0.47949332 -0.32638812
000060 31 c2 a2 3f f9 9b 54 bf f1 7b 03 bf 93 8c aa bf
       1.2715513 -0.83050495 -0.51360995 -1.332415
000070 b0 b4 97 bf 93 04 82 bf 9f 2b 91 bc 6f 72 ba 3f
       -1.1852016 -1.0157646 -0.017720995 1.4566172
000080 63 90 1d bf 7a 44 24 3f f0 93 c8 3f 1f 44 23 bf
       -0.6154844 0.64166987 1.5670147 -0.6377582
000090 8c 8f e1 bd a2 e4 cf bf 15 4f 7d be f3 a7 a9 3f
       -0.110137075 -1.6241648 -0.24737199 1.3254379
0000a0 86 72 58 be c8 7e ba 3e 8b 6d 19 3f d9 0a 24 bf
       -0.21137437 0.3642485 0.59932774 -0.6407905
0000b0 d0 ae b0 3f 6d a6 2a 40 0d 15 ce bf 2f e1 fd be
       1.3803349 2.6664078 -1.6100174 -0.49585864
0000c0 05 ad 39 bf 66 e7 c3 3e b3 36 54 3f b9 f5 18 3f
       -0.7252963 0.3826248 0.82895964 0.59749943
0000d0 f1 28 e4 be 6a 4d 51 3f 8b f1 fd 3f 41 0f db 3e
       -0.44562486 0.8175875 1.9839338 0.42785075
0000e0 99 5b 01 c0 18 31 b1 be 49 b1 a8 bf 7c 35 a9 bb
       -2.0212157 -0.34607768 -1.3179103 -0.0051638465
0000f0 3e e6 3b 3e 3f ba 0f 40 d1 a6 74 bf 18 82 46 bf
       0.18349549 2.2457426 -0.9556704 -0.7754226

feature_extract.mlps.0.batch_norms.0.running_var f4 [64]
000000 a0 59 1c 3e b6 ca 1e 3e 58 b7 e7 3d c3 b6 5a 3e
       0.15268564 0.15507016 0.11314267 0.2135878
000010 02 c5 fa 3d b2 41 80 3e 13 2d d9 3d 1e c1 65 3e
       0.122446075 0.25050122 0.106043 0.2243695
000020 d8 83 fa 3d 2a cf 00 3e 48 5e 87 3e d2 83 97 3d
       0.122321784 0.12579027 0.26439118 0.073981896
000030 a9 6e 91 3e 79 29 f6 3d 09 49 41 3e 1d fb a0 3e
       0.2840474 0.12019629 0.18875517 0.31441584
000040 b9 0a c4 3e 31 b2 79 3e 0b a0 1e 3e db a5 02 3d
       0.3828943 0.24384381 0.15490739 0.031896453
000050 1b 5b 75 39 38 91 b6 3d 6b bc 0e 3d bb df b0 3a
       0.0002339896 0.08914417 0.034847658 0.0013494411
000060 f4 ff 51 3e ad 2d 42 3e 22 b2 b8 3d 98 ed 82 3e
       0.20507795 0.18962736 0.09018351 0.25571895
000070 b6 56 72 3e 12 b2 01 3e d0 29 91 3d 19 d6 c6 3d
       0.2366589 0.12665585 0.07088053 0.09708805
000080 1d b8 30 3d 55 47 82 3e d3 4d 4c 3e 1d 83 b4 3d
       0.043144334 0.25445047 0.19951563 0.088140704
000090 dc 12 92 3b 33 00 e9 3d 69 be 44 3e a7 c9 87 3e
       0.0044578146 0.11376991 0.1921326 0.26521036
0000a0 4b 96 66 3e 7d cc 0e 3b 2e 62 b3 3c d8 1e 90 3d
       0.2251827 0.0021789365 0.021897402 0.07037133
0000b0 37 60 b4 3d aa 7f 95 3e 92 3a aa 3e 8e a5 6d 3e
       0.08807414 0.29198962 0.3324781 0.23207685
0000c0 8b 57 ae 3e 81 ed 26 3e 27 ae 29 3e 75 67 95 3e
       0.34051165 0.16301538 0.1657034 0.29180494
0000d0 3d 0e 87 3c e4 2b 47 3e a0 4e 46 3e 35 6e 9c 3e
       0.016486282 0.19450337 0.1936593 0.3055283
0000e0 55 fc 55 3e 30 72 a2 3d 5e 54 b4 3d 2b db 61 3e
       0.20897038 0.07931936 0.08805154 0.22056262
0000f0 98 b8 3a 3d 9e ee 9b 3e 1e 2a 54 3e 98 65 b7 3d
       0.0455862 0.30455488 0.20719191 0.08954924

feature_extract.mlps.1.linears.0.weight f4 [64, 64]
000000 4f c2 d9 3d 54 89 8e 3d cc 21 ce 3d 6c d2 00 3e
       0.106327645 0.06959787 0.1006504 0.1258027
000010 f6 cd d3 bb 0f 73 39 bd 90 6b 66 bd 08 a5 92 3b
       -0.0064637614 -0.045275744 -0.056254923 0.0044752397
000020 20 4f 0e 3d 26 10 f9 bc 37 cf 93 3d a5 86 01 be
       0.03474343 -0.030403208 0.072172575 -0.12649019
000030 ae 83 d8 bd 26 82 33 bd f5 9d 0f bc 0e 66 1f bc
       -0.10571991 -0.04382529 -0.008765687 -0.009728922
000040 8e f3 01 bd 48 2b f5 bc 4d 0c ab bd 7f 49 10 3d
       -0.031726412 -0.029927865 -0.083519556 0.03522634
000050 f0 24 73 3d ed 0d 03 3d 81 bf 0a bd de e1 43 bd
       0.0593614 0.031995703 -0.03387404 -0.047822826
000060 79 23 8e 3d c4 bf 60 bb 99 3f df 39 bf fa 33 bc
       0.069403596 -0.0034293989 0.00042581258 -0.0109850755
000070 1c 73 5e bd d7 b3 0d 3d fd 17 e4 3d 83 db 54 3d
       -0.054308996 0.034595337 0.11137388 0.051967155
000080 91 33 24 bd a7 ef d4 3c 3f c1 9b bd bf 34 c4 3d
       -0.04008824 0.025993181 -0.07605218 0.09580373
000090 e4 b4 2d bd b1 40 ac 3d bd 75 e9 bd f4 61 d2 3d
       -0.04240884 0.084107764 -0.1139941 0.10272589
0000a0 60 e8 e2 3d d1 ba 6e 3d 8d f8 c1 3d bf 4e 64 3d
       0.11079478 0.05828363 0.094712354 0.05573916
0000b0 69 c2 b2 3d 9b 41 a9 3d 33 9c 35 bd 0b fe e1 bd
       0.08728487 0.082644664 -0.044338416 -0.11034783
0000c0 22 8c 8b 3d 82 f6 f5 bd bf 6d d0 3c 7f b5 9a bd
       0.068138376 -0.12009908 0.025442956 -0.07554149
0000d0 41 f1 2c 3d c8 fc 5f bb 69 9c b6 3d 04 e9 80 3d
       0.042222265 -0.003417777 0.089165516 0.06294444
0000e0 c4 1c ed 3b 4f ec 96 bd 10 68 91 3d a4 64 c8 bc
       0.007236095 -0.07369291 0.070999265 -0.024462052
0000f0 97 97 9f 3d 92 36 82 3d 4e 8b 2e bd 98 77 2e 3d
       0.07792585 0.06358065 -0.04261332 0.042594522
000100 b0 00 91 bc 38 3b c9 bd b2 24 c3 bd 56 64 ae 3d
       -0.017700523 -0.09825748 -0.095284835 0.08515231
000110 62 94 15 bd 19 cc ff 3d 06 29 d2 bd 98 6e f4 3d
       -0.036518462 0.124901004 -0.10261731 0.119351566
000120 6a 25 2b bd 4c fe 8a 3d 1c db f7 bd b5 b2 ba 3d
       -0.041783728 0.067867845 -0.12102339 0.09116117
000130 ce 1d 24 3d 5b de 88 bd 6a cd 64 3d 94 5a 8c bd
       0.040067486 -0.06683036 0.05585996 -0.06853214
000140 0a b7 be 3d 91 3c a6 bc 53 3e 79 bc bc 7e 4c 3d
       0.09312256 -0.020292552 -0.015212613 0.04992555
000150 f4 72 43 bd 93 7a 8d 3d 69 28 b4 bc ac a3 4c bd
       -0.04771705 0.06908145 -0.021991925 -0.049960777
000160 fa 24 cc bd d1 ea e4 3d 84 ab 2d bd 5b 56 c4 3d
       -0.0996799 0.111776 -0.0423999 0.095867835
000170 60 41 10 3d a9 83 97 bd 4a 13 cd 3d 5e 5c 72 bd
       0.035218596 -0.07398159 0.10013445 -0.05917012
000180 fd 5b 46 bc f7 31 25 3d fc 38 d5 bd 09 0a 4c bc
       -0.012106893 0.040330853 -0.104112595 -0.012453564
000190 56 cf 3c bd e9 c3 3e bc c4 98 2f bd a9 dd d8 bd
       -0.04609617 -0.011643388 -0.042870298 -0.10589153
0001a0 76 f4 89 bd 68 d5 bc 3b e5 34 c8 bc c9 5f 11 bd
       -0.0673608 0.0057627447 -0.024439285 -0.03549174
0001b0 05 3c b5 3b 43 41 76 3c 84 f6 88 bd e5 84 51 bd
       0.0055308365 0.015030208 -0.06687644 -0.05115213
0001c0 d8 ef d6 3d 96 f9 8a 3d bc cc d2 3d 49 29 cf 3d
       0.10494965 0.06785886 0.10292956 0.101152964
0001d0 60 da e2 3d 61 e3 ed 3d 1e 79 5f bd cb cc 4c 3d
       0.11076808 0.11615635 -0.054558866 0.049999993
0001e0 38 b8 53 bd 65 5f a3 bd c8 46 a4 bd 51 a1 e2 bd
       -0.051689357 -0.079771794 -0.08021313 -0.11065925
0001f0 a4 02 4a 3d aa 3f 56 3d 75 79 4f 3d ca 8b 64 bd
       0.049318925 0.05230681 0.05065294 -0.055797376
000200 2b 69 80 bd 26 f4 b5 3d ea 6f 93 bd 42 09 a5 3d
       -0.06270059 0.08884458 -0.0719908 0.080584064
000210 f3 0c 83 bd e5 41 c2 bd d6 22 b5 bb 63 a2 db 3d
       -0.06398954 -0.09485225 -0.0055278344 0.10724332
000220 40 81 e6 3d b2 9b 00 be c7 54 6e 3c 51 25 01 be
       0.11255121 -0.12559393 0.01454658 -0.12611891
000230 18 7a ab bd 55 74 01 3d 2e 30 82 bc de 1b 1e bd
       -0.08372897 0.031605083 -0.015892114 -0.038600795
000240 00 d7 89 bd a8 c4 e7 bc 9c 91 93 3c 72 ad b4 bc
       -0.06730461 -0.028292015 0.018013768 -0.022055361
000250 27 ed 79 bd 6d 87 2b bd 60 4c e5 3d f7 b3 9d 3c
       -0.06101718 -0.0418772 0.11196208 0.019250853
000260 0f a1 01 bd 4c f5 a7 bd ff 64 43 bd 4f e1 f4 bc
       -0.031647738 -0.082010835 -0.04770374 -0.029892592
000270 f4 8b f5 3d 12 88 be bd d0 99 95 bd bd 8f 95 bd
       0.119895846 -0.09303297 -0.07304728 -0.073028065
000280 79 33 1e bc 53 c8 8e 3d 04 2d 2c bd 8d 08 10 bd
       -0.009655827 0.069718026 -0.042035118 -0.035164405
000290 13 87 f2 bd dc 2c 30 3d 82 49 89 3b 80 77 5e bd
       -0.118421696 0.04301153 0.004189671 -0.054313183
0002a0 f0 30 ec 3d 21 a2 bb 3d f6 e3 9d 3b fd d8 41 bd
       0.115327716 0.09161783 0.004818435 -0.047326077
0002b0 c8 6b 86 ba 61 b6 fd 3b ee 0a a9 bc 87 8d f8 3d
       -0.001025551 0.0077426885 -0.020635094 0.12136369
0002c0 b3 e7 ad 3d d1 9e 7c bd dd 8b a1 bd a7 2d 4c 3d
       0.08491459 -0.061674897 -0.07888005 0.049848225
0002d0 bd 8c 2b b9 d3 d7 f8 bc 18 4b ba bd c5 0e 58 bd
       -0.0001636026 -0.03037635 -0.09096354 -0.05274846
0002e0 22 e1 f8 3d 29 fe be 3d 2e 1d 0b bd c8 73 a7 bc
       0.12152316 0.09325821 -0.033963375 -0.020440951
0002f0 f0 09 58 3d d1 c8 37 3c 47 16 04 3d 07 5b aa 3d
       0.052743852 0.011217312 0.032247808 0.08318143
000300 c3 79 95 3d a8 fb 80 bd c5 4f bc 3d ab 6d 11 3d
       0.07298615 -0.062979996 0.09194902 0.03550498
000310 07 0d 85 bd 6d 5d 15 bd ed af 3d 3d e5 55 52 bd
       -0.064966254 -0.03646605 0.046310354 -0.051351447
000320 38 3b a8 bd 53 8f b6 bd d3 a7 ab 3d bc ff b9 bd
       -0.0821442 -0.08914056 0.08381619 -0.090819806
000330 e7 aa 04 be 6f 7e a1 3d d9 32 b4 bd 1a e7 ec 3d
       -0.12955819 0.078854434 -0.08798761 0.115675166
000340 8e 61 01 be 9c 01 83 3c 52 a9 2d 3c 76 b7 bf 3c
       -0.1263487 0.015991978 0.010599451 0.02340291
000350 6f ed 21 3d 2f 3d fc bd d5 a9 2b 3d 76 1c e9 bb
       0.039533075 -0.12316357 0.04191001 -0.0071139885
000360 41 10 e8 bc ff 6d c8 3d 45 e2 03 bd d0 78 16 bd
       -0.028328063 0.09786605 -0.03219821 -0.03673631
000370 a3 1f db bd 11 e0 ec bd 77 16 c4 bd 47 d1 d6 3c
       -0.106993936 -0.11566175 -0.09574597 0.026222838
000380 35 3e e5 3c cf 8a e9 bc fa 8d 96 bd be 84 3e bb
       0.027983764 -0.028508572 -0.07351299 -0.002907082
000390 71 e3 0a bd 4b 3f a7 3c d3 1b 35 3d 73 bc 2f bd
       -0.03390831 0.020415923 0.04421599 -0.04290433
0003a0 b8 40 0a bd f7 72 ae bd a9 b7 ef 3d 29 9c 55 3d
       -0.033753127 -0.085180216 0.11704952 0.05215088
0003b0 7f 85 d4 bd df 10 33 3d a3 35 78 3d 29 d4 65 3d
       -0.10377025 0.04371726 0.060598027 0.056110535
0003c0 fc 80 c7 bc fa bf bf bd 33 04 fb 3c 3b 97 f4 bc
       -0.024353497 -0.093627885 0.03064165 -0.029857269
0003d0 fd b0 2d bd e9 28 31 bd 2c 4a a7 bd 76 3b 12 3d
       -0.042405117 -0.043251906 -0.08168444 0.035701238
0003e0 c2 e6 82 3d cd b8 98 3b 63 72 c1 3d 7f 63 80 bd
       0.0639167 0.004660702 0.09445646 -0.062689774
0003f0 5a 20 bc bd a8 70 ff bd b5 a7 dc bd cd dd d6 bd
       -0.09185858 -0.12472659 -0.10774175 -0.10491524

feature_extract.mlps.1.linears.0.bias f4 [64]
000000 01 8a 92 bd 17 63 41 3d cb 42 53 bc 9a 70 08 3d
       -0.071552284 0.04721364 -0.012894343 0.03331051
000010 2b 9b 4e bd b3 52 95 bd f7 23 40 bd 3b b5 cb 3d
       -0.05044095 -0.07291164 -0.0469093 0.09946676
000020 0b 5f b5 3d 55 f7 c9 3c 52 70 2e 3c 8b 4c a1 bc
       0.08856019 0.02465407 0.010646896 -0.019689819
000030 fb 61 b8 3d 07 ba 41 bd 64 7c 21 3d f4 d6 19 bd
       0.09003063 -0.04729655 0.03942527 -0.03755851
000040 3b f1 f4 3d 84 66 25 3c 1f 14 cb 3d 13 e0 eb 3d
       0.119600736 0.010095242 0.09915947 0.11517348
000050 d5 43 73 bd 3f e8 bd bd 07 50 40 3a 04 5e e0 3c
       -0.05939086 -0.09272813 0.0007336144 0.02738858
000060 52 c6 f8 3d 61 c3 da 3d c8 8d a9 bd 51 95 a1 3d
       0.121472016 0.10681797 -0.08278996 0.07889808
000070 39 34 a6 3c 06 ce 90 bd e7 b4 b5 bd c0 43 b1 3d
       0.020288574 -0.07070546 -0.08872395 0.086555004
000080 55 92 a1 3d 30 f6 e1 bd f0 47 99 bd 21 de 84 3d
       0.07889239 -0.11033285 -0.07484424 0.0648768
000090 5d 91 5d 3d 8e 95 4a 3d 98 79 65 bd d4 d1 e6 3b
       0.054093707 0.049459033 -0.056024164 0.0070440564
0000a0 56 f0 5b 3b 25 24 34 bb ca 19 0b 3d 83 05 31 bc
       0.003356 -0.0027487364 0.03396014 -0.010804537
0000b0 f9 68 9f 3d 70 15 fc bd aa 0d c8 3d 76 21 e4 3d
       0.07783694 -0.123087764 0.09768231 0.11139195
0000c0 ae d5 7e 3c 0a 23 8b 3d f4 c5 67 bd 23 a1 de 3d
       0.015553875 0.067937925 -0.056585267 0.10870578
0000d0 a8 58 3e 3c 01 04 e9 bd cc 84 72 3d 45 0c c4 3d
       0.011617817 -0.11377717 0.059208676 0.09572653
0000e0 03 14 0c 3d 0a 80 7a 3d 03 8d eb bb 43 18 54 3d
       0.034198772 0.061157264 -0.0071884408 0.05178095
0000f0 77 a0 db 3d 49 ce ee bd 52 3b 96 bd 86 c6 e8 bd
       0.107239656 -0.116604395 -0.07335533 -0.1136599

feature_extract.mlps.1.linears.1.weight f4 [64, 64]
000000 30 09 c5 bc 0e fa ac 3d 4a 9c 68 3d a3 15 30 bc
       -0.024052233 0.08446132 0.056789674 -0.010747346
000010 12 e9 d3 bd a6 ad a7 bd d4 5f cb 3d 10 84 be 3d
       -0.10347189 -0.08187418 0.09930387 0.09302533
000020 e9 95 56 3d 19 50 d3 bb 1d 46 d3 bd 65 1d ae bd
       0.05238906 -0.0064487574 -0.103161074 -0.085017
000030 08 b2 ae bd ee 9a 9d 3d 0a c5 77 bd 61 c5 a5 3d
       -0.085300505 0.07695566 -0.060490645 0.08094288
000040 41 60 ee 3d 56 9a ad 3d 02 8c ea bc 5f 00 87 3b
       0.11639453 0.08476703 -0.028631214 0.0041199173
000050 9f c6 e4 3d 8b a7 d3 bd a7 e7 95 3d eb a1 df 3d
       0.111706965 -0.10334691 0.07319575 0.10919555
000060 5c d1 85 bc fd 55 67 bd 54 af f1 bd c7 be 62 bd
       -0.016335182 -0.05647849 -0.11801019 -0.05535772
000070 43 28 56 3d 3a da 39 bd c7 47 8c 3d 5b c1 fe bc
       0.05228449 -0.045374133 0.06849628 -0.031098058
000080 4d e9 a2 3d 61 f3 9e 3c 54 7d d8 bd 51 8e aa bd
       0.07954655 0.019403161 -0.105707794 -0.08327926
000090 a6 be 88 bd d1 f0 d1 3d b5 88 d2 bd 1c 7a 49 3d
       -0.06676988 0.1025101 -0.10279981 0.04918872
0000a0 fb 8d ca bd e0 cd 09 3d 17 14 d1 bc fb 66 99 bd
       -0.09890362 0.033643603 -0.025522275 -0.07490345
0000b0 69 b6 d0 3d a2 99 ee bd e2 d8 f4 3d ba 89 d0 3c
       0.10191042 -0.11650397 0.119554296 0.025456298
0000c0 1a f4 29 3c ae dd 69 bd 64 6e 5c bb 27 27 a3 3d
       0.01037314 -0.057096176 -0.0033635134 0.07966452
0000d0 48 30 91 3d e7 b9 fe 3d f8 ca 88 bc bc 95 ce 3b
       0.07089287 0.12437802 -0.016698346 0.006304471
0000e0 8b ad 5c bd 14 3f de bd 99 6f 14 3d 0f f5 ca bd
       -0.05387644 -0.10851875 0.03623924 -0.099100225
0000f0 0a 7c ab 3d 1f 9b 8e bc 1e 3a 63 bc fc 19 63 3d
       0.08373268 -0.017407952 -0.013868837 0.055444703
000100 5c b7 2b 3c 54 f9 ad 3d 59 fb b2 3d 2d a9 aa bd
       0.010480728 0.08494821 0.08739347 -0.08333049
000110 52 ca df bd 07 4e f2 bd a9 e4 f7 3d a3 93 f9 3d
       -0.109272614 -0.11831289 0.1210416 0.121863626
000120 87 73 5e bc 9b cf 39 3d cf b1 4f 3d b8 d8 fc bd
       -0.013577349 0.045364004 0.05070668 -0.12346023
000130 ea 08 1f 3d 38 e9 ff bc 93 57 ab bd fd 71 72 3b
       0.03882686 -0.031239137 -0.08366313 0.0036994212
000140 74 fc 9d 3d 88 db d6 bd 4b 6e 02 3d d3 52 a6 bd
       0.07714167 -0.10491091 0.031843465 -0.08121266
000150 92 a0 6e bd 11 c4 fe bc f8 58 8a 3d 69 35 ea bd
       -0.0582586 -0.031099351 0.06755251 -0.114359684
000160 9d bd 10 bd a3 10 89 3d 92 eb bc 3c c2 be e1 3c
       -0.03533708 0.06692626 0.023061547 0.02755678
000170 d0 f5 bf 3d ed ff 19 bd 5b 43 2e 3d bb bc 92 bd
       0.09373057 -0.037597585 0.042544704 -0.07164904
000180 9d 08 84 bc 1d aa c3 3b bf 1c 6e bb 5b 46 dd bd
       -0.016117388 0.005971207 -0.0036333052 -0.10804435
000190 82 b9 90 3d 8d 92 84 3d 91 bf 53 3d bb 15 71 3d
       0.07066633 0.06473265 0.051696364 0.058858614
0001a0 1d af 02 bd b7 4d af 3c 84 9e 7b bd 17 77 76 3d
       -0.031905282 0.021399362 -0.06143047 0.060172167
0001b0 1c 87 ec bc 72 4d ec 3d a5 94 9f bd 5f 28 06 3e
       -0.028873019 0.11538209 -0.077920236 0.13101338
0001c0 ad 0b e0 3d 27 60 56 bd 21 01 74 3d af 0a 9c 3d
       0.10939727 -0.05233779 0.05957139 0.07619225
0001d0 9f 1e fb bd c1 54 b5 3d 04 27 42 3d f2 57 cb bd
       -0.122617 0.08854056 0.04740049 -0.099288836
0001e0 c9 a4 3f bd 74 42 d9 bd 51 89 3d bd 58 18 c1 bd
       -0.04678801 -0.10608378 -0.046273533 -0.09428471
0001f0 ee e6 a1 bd aa 16 6d bd 4b 97 ba bc 13 45 c3 bc
       -0.079053745 -0.057882942 -0.02277722 -0.023836648
000200 dd a8 aa bc 88 11 b3 3d f9 05 96 3d 5c 22 0f bd
       -0.020832473 0.08743578 0.07325358 -0.034944877
000210 c8 8f a8 bd 77 3d e9 3d b1 59 e8 3d 6c 14 89 bc
       -0.08230549 0.113886766 0.11345232 -0.01673337
000220 9e bc 51 3c fc 4d 74 3d e8 8f 08 3d 24 de 49 3d
       0.0128013175 0.059644684 0.033340365 0.049284115
000230 5e 78 c4 3d 23 42 f7 3c d1 a2 15 bd c0 d9 cb bd
       0.09593271 0.030182904 -0.036532227 -0.09953642
000240 96 1e 73 3d e5 d3 16 bd 6b d0 8d bd c4 77 85 3d
       0.05935534 -0.036823172 -0.06924518 0.06516984
000250 e2 5f e2 bd 5e 22 89 3d 13 f8 52 bc 20 83 f2 3d
       -0.110534444 0.06696008 -0.012876528 0.11841416
000260 0d 5d 80 bd e3 71 c6 3d 21 07 aa bb 06 b4 e2 bd
       -0.06267748 0.09689691 -0.005188838 -0.11069493
000270 83 65 7d 3b c1 12 7f bc 6b c6 0b 3d 96 f7 db 3c
       0.0038665242 -0.015568436 0.034124773 0.026851457
000280 c8 32 6b 3c b8 15 df bd 35 86 b2 bd e3 be 9c bd
       0.014355369 -0.108928144 -0.08717004 -0.07653596
000290 c7 f0 3f bd 7f 1a 6a bd 0a 54 04 bd 59 f0 8f 3d
       -0.046860483 -0.057154175 -0.03230671 0.070282646
0002a0 22 99 60 3d c1 78 ea bb df d2 0d be 52 13 e5 3d
       0.05483354 -0.0071555083 -0.13849972 0.11185326
0002b0 c2 cf 59 3d 56 b5 01 be f2 71 cb 3d d9 41 d6 3d
       0.05317665 -0.1266683 0.09933843 0.10461778
0002c0 26 c6 b8 3d 40 e5 0e bc b1 1d c4 bd c4 ac 80 bc
       0.09022169 -0.00872165 -0.09575976 -0.015707381
0002d0 e6 df de bd b3 e8 d5 3d c6 10 a5 3d 5c fd 49 3c
       -0.10882549 0.104447745 0.0805984 0.012328472
0002e0 18 56 5c 3c 8a f6 47 bd 9c ed 68 bd 99 c7 a4 3d
       0.013448261 -0.048819102 -0.056867227 0.08045883
0002f0 f5 24 b7 3d 05 ad 06 3d f8 43 c6 bc 63 2c d9 b9
       0.08942596 0.032879848 -0.024202332 -0.00041422536
000300 85 12 28 bb 14 89 4a bc 20 b8 7f bc 8e 7e cf 3c
       -0.0025645804 -0.0123617835 -0.015607864 0.0253289
000310 28 ff 9d 3c 26 fa e3 3d 41 9e b8 bd 23 57 43 bd
       0.019286707 0.111316964 -0.090145595 -0.047690522
000320 6a 6d f2 3c 09 16 d6 3d 9f 10 e9 3d bf e4 8d 3d
       0.029593188 0.104534216 0.11380123 0.069283955
000330 b6 2a 9e ba a3 ae 97 3d a2 3d b9 bd ec d3 6d 3c
       -0.0012067172 0.07406356 -0.09044959 0.014515858
000340 93 28 2b bd ba 34 8c 3d 4d 21 80 bd 38 99 ec 3d
       -0.04178674 0.06845994 -0.062563516 0.11552662
000350 f8 ed 94 3c df 61 f0 bd 43 e3 dc 3d 9a 91 29 3a
       0.018179879 -0.117374174 0.10785534 0.00064685347
000360 24 a4 06 be 41 8c eb 3d cf 20 83 bd ea fd dd bb
       -0.13148552 0.11501361 -0.06402742 -0.0067746537
000370 19 40 fc 3d 24 10 30 bd ec 08 cb bd 9d ba f2 3d
       0.12316913 -0.042984143 -0.09913811 0.11852
000380 66 e7 c2 bd 92 99 f3 3d 48 1f e7 3d 99 84 a3 3d
       -0.09516792 0.118945256 0.11285263 0.07984275
000390 38 1e 88 3d d2 b4 9f 3c 1b bd 01 be e4 b8 d3 bd
       0.06646389 0.019495402 -0.12669794 -0.103379995
0003a0 e7 80 b5 3d 33 2b dd 3d 3e f0 90 3d 3a fc d6 bd
       0.08862477 0.10799255 0.070770726 -0.10497327
0003b0 88 a3 8e 3d 87 d8 b7 bb a1 bc 74 bc 57 74 eb bd
       0.06964785 -0.005610529 -0.014937551 -0.114967994
0003c0 9b e5 af bd 0d fe f9 bd ba e6 cd 3c c3 c1 00 3e
       -0.08588716 -0.122066595 0.025134433 0.12573914
0003d0 19 99 84 bd 5b 9c 41 bd d2 19 b8 bd 10 fd e9 bd
       -0.064745136 -0.047268253 -0.089893 -0.11425221
0003e0 85 97 c7 3d 9c 19 8f 3d d9 4b e0 bb 15 fb 0b 3d
       0.09745697 0.069873065 -0.0068449792 0.034174997
0003f0 38 4d ad 3d 59 16 81 bc 06 e6 b1 bd c3 87 cd 3c
       0.08461994 -0.015757727 -0.086864516 0.02508915

feature_extract.mlps.1.linears.1.bias f4 [64]
000000 db fa 9f 3d ee 70 10 bd c3 19 b9 bd c3 9a 40 3d
       0.07811519 -0.03526395 -0.09038117 0.047022592
000010 d7 c9 fc 3c 1e bf 35 3d d5 14 a5 bc e6 2b 93 bd
       0.030857963 0.044371717 -0.020151535 -0.07186107
000020 67 9f c4 3c 70 ea b0 3d 8c 72 05 3e cb f7 ab bd
       0.02400179 0.086384654 0.13031977 -0.08396872
000030 0f 79 00 bd 01 cd c4 3d ac bb ab bd ac 8b d1 3d
       -0.03136545 0.09609414 -0.08385405 0.102317184
000040 2e fe 0f 3d c2 be 94 3d 32 9f 2e bd f8 22 da 3d
       0.035154514 0.07262947 -0.04263229 0.10651201
000050 78 61 f5 bd d7 4d ad 3d 73 2f 47 3c f7 c5 15 3d
       -0.11981481 0.084621124 0.012157309 0.036565747
000060 b0 e9 8b 3d 62 06 f8 bd d0 2c cb 3b 2c 46 d9 3b
       0.06831682 -0.121105924 0.0062004104 0.0066306796
000070 5e 8b 10 3d 6b 0e 84 bc 56 cd b3 3c ac 24 bf bb
       0.03528916 -0.016120156 0.021948498 -0.005833229
000080 7d 6c e2 bd 52 60 6a bd 7c f2 b3 3d 8c 16 d3 bd
       -0.11055849 -0.057220764 0.087864846 -0.10307035
000090 32 9c 3b bd e1 82 c8 bd 86 f6 ae bb e1 e5 5a 3d
       -0.045803256 -0.09790588 -0.0053394465 0.053441886
0000a0 2b 8f 50 bc 77 be 82 3d 25 bc 9e bd 09 6a a8 bd
       -0.012729446 0.063839845 -0.077507295 -0.082233496
0000b0 5e 6b e0 bd b2 ea 78 3d d0 8d b2 3c 30 0f b6 bd
       -0.10957979 0.060770698 0.021796137 -0.088896155
0000c0 5c 4c ed bd 3a 15 28 bd 2b 91 26 bb 38 59 b0 3d
       -0.1158683 -0.04103587 -0.0025416117 0.08610767
0000d0 ce 39 a4 bd 78 8f b0 3d c7 ab 40 3d 7a 43 eb bd
       -0.08018838 0.086211145 0.04703882 -0.114874795
0000e0 91 f7 44 3d 1f 7d a4 3d 48 4b 95 bd a7 b6 ae 3d
       0.04808766 0.080316775 -0.072897494 0.08530932
0000f0 48 20 ef 3d 73 73 bb bd ab a2 b6 3d 87 5e 9f 3d
       0.11676079 -0.091528796 0.08917745 0.077817015

feature_extract.mlps.1.batch_norms.0.weight f4 [64]
000000 4e 3c 80 3f 90 75 7e 3f f6 7b 80 3f 3e 80 7f 3f
       1.0018404 0.99398136 1.003783 0.9980506
000010 d0 68 7f 3f e2 53 80 3f 4d 09 81 3f 45 7b 7e 3f
       0.99769306 1.0025599 1.0080963 0.99406844
000020 6c 52 7f 3f 8e 6f 81 3f 73 71 80 3f 8a e9 80 3f
       0.9973514 1.0112169 1.0034622 1.007127
000030 35 94 7d 3f b3 bd 7e 3f eb 7c 7e 3f 15 9d 7d 3f
       0.9905427 0.9950821 0.9940936 0.99067813
000040 ae e4 80 3f 39 93 7d 3f dd 32 80 3f 6e dc 7e 3f
       1.0069788 0.9905277 1.0015522 0.995551
000050 34 54 81 3f b2 77 7e 3f b5 e2 7d 3f fb 54 80 3f
       1.0103822 0.9940139 0.9917405 1.0025934
000060 03 b6 80 3f ed bc 7f 3f 69 55 80 3f 9c df 80 3f
       1.0055546 0.9989765 1.0026065 1.006824
000070 42 de 80 3f 82 4d 80 3f 13 2d 7e 3f 46 7e 7f 3f
       1.0067828 1.0023654 0.9928753 0.9980205
000080 fd 01 81 3f 67 98 7e 3f 09 0a 80 3f 47 52 80 3f
       1.0078732 0.994513 1.0003062 1.0025109
000090 ff 60 7e 3f ac 60 80 3f 3e 41 7e 3f c4 73 7e 3f
       0.99366754 1.0029502 0.993183 0.99395394
0000a0 70 d0 80 3f 1a 44 7e 3f 20 aa 7e 3f b0 91 7c 3f
       1.006361 0.99322665 0.9947834 0.986598
0000b0 53 43 7e 3f e6 cc 81 3f f7 fa 80 3f 98 be 80 3f
       0.9932148 1.0140655 1.0076588 1.0058165
0000c0 6a 79 7f 3f 87 1d 7e 3f 3f fa 80 3f 5d 9f 80 3f
       0.9979464 0.99263805 1.0076369 1.0048634
0000d0 7c cf 80 3f 9e dc 80 3f a2 21 7f 3f 9a f7 7e 3f
       1.0063319 1.0067327 0.99660695 0.9959656
0000e0 ba 2c 7e 3f 3a c5 7e 3f c6 b6 7e 3f 96 bd 7f 3f
       0.99287 0.99519694 0.9949764 0.9989866
0000f0 18 8e 7e 3f 6d be 7e 3f b0 6f 81 3f 35 37 80 3f
       0.9943557 0.99509317 1.0112209 1.0016848

feature_extract.mlps.1.batch_norms.0.bias f4 [64]
000000 54 51 1e bb 29 b9 ba bb 86 05 52 3b ea 12 e2 38
       -0.0024157362 -0.0056983423 0.003204675 0.00010780043
000010 ec 62 99 3a b3 f2 a8 3b ee 23 7e 3b 4c 65 a7 bb
       0.0011702455 0.005155885 0.003877874 -0.005108511
000020 48 a6 24 3b 35 fd d9 3b 4a ec 24 3b a0 ab db 3b
       0.0025123525 0.006652499 0.0025165253 0.006703809
000030 c0 ec 14 bc bd 61 05 3a b8 1d c8 bb af b9 84 3b
       -0.009089649 0.00050881115 -0.0061070584 0.0040504555
000040 a8 78 04 3c 97 28 e6 bb cb 22 ab ba a9 f2 6a 3a
       0.008085407 -0.0070238817 -0.0013056634 0.0008962551
000050 b0 42 58 3c 6c 0f 80 bb e8 27 80 3a 83 26 61 3b
       0.013199493 -0.0039080884 0.0009777518 0.003435523
000060 f8 b0 b2 3b c5 30 05 bc 11 af 99 3b a7 59 4b 3a
       0.005453225 -0.008129303 0.004690059 0.00077571947
000070 c8 de ea 3a bc bc 51 3b bd 40 72 bb 86 8f a4 3b
       0.0017919177 0.0032003364 -0.0036964857 0.005021992
000080 06 e5 e4 3b 2e e2 87 bb 59 ac 9f bb f9 03 6d 3b
       0.0069853095 -0.0041468358 -0.0048728404 0.0036165698
000090 b6 90 d2 bb cb 19 81 3b c4 b8 96 bb 03 28 95 bb
       -0.0064259423 0.0039398423 -0.0045996625 -0.004551889
0000a0 65 10 eb 3b b5 7e d6 bb ba d0 1b bb ea e7 ee bb
       0.0071735852 -0.0065458664 -0.0023775534 -0.00729083
0000b0 9d 09 b8 bb e6 c8 22 3c d5 ea c6 3b d6 a4 14 3c
       -0.0056163804 0.009935593 0.0060704746 0.009072503
0000c0 7e 1c 90 3b 2a 80 9e bb 93 ec d0 3b 28 02 b8 3b
       0.004397928 -0.0048370557 0.006375858 0.0056154914
0000d0 1c ba 97 3b 06 2c 1c 3c 0d b1 4b bb 95 7e 07 bc
       0.0046303403 0.00953198 -0.0031080872 -0.008269926
0000e0 3f 65 8f bb 0b 3f a7 bb d5 e7 ef bb 3e 88 12 bc
       -0.004376083 -0.005103951 -0.0073213377 -0.0089436155
0000f0 be f1 94 bb 07 d5 43 3b 37 93 40 3c d5 97 ab 39
       -0.0045454195 0.0029881613 0.011753849 0.00032728785

feature_extract.mlps.1.batch_norms.0.running_mean f4 [64]
000000 1d b3 4c 3f 14 54 c5 bd 73 69 40 be bf a5 8c bf
       0.79960805 -0.09635177 -0.18790226 -1.0988082
000010 fb 4b 98 be 49 b8 d4 bd e0 e4 08 be 6b b2 dc bd
       -0.29745468 -0.10386712 -0.13368559 -0.10776218
000020 29 fa 64 3f 2e 7a 72 be b0 95 38 bf de ca e4 be
       0.89444214 -0.2367942 -0.72103405 -0.44686025
000030 21 f4 d4 bc f1 48 d8 bd c0 3a 5f 3f 3f f1 8c 3f
       -0.025995316 -0.105607875 0.8719902 1.1011122
000040 45 8e d7 3e 94 95 c6 be fe 3c 23 3f 43 6b c1 be
       0.4210073 -0.38785994 0.6376494 -0.37777147
000050 e6 9c 92 3e a8 e5 d9 be 61 e7 66 bf 1c de 89 bf
       0.2863533 -0.42558026 -0.90196806 -1.0770907
000060 17 d1 33 be a0 d6 cb be bc bf d1 be a3 fa 1a 3f
       -0.1756023 -0.39812183 -0.40966594 0.6053869
000070 38 1e 41 bf 24 e2 eb 3c 88 c4 e6 be 4e 74 22 be
       -0.75436735 0.028794356 -0.45071816 -0.15864679
000080 bc c1 81 bf eb 65 0f bf c1 eb b4 be 60 9a b3 3e
       -1.0137248 -0.5601489 -0.35336116 0.35078716
000090 bf be 11 3e 5e 87 5c bf d2 8c 4d 3f 5d df 7d be
       0.1423292 -0.86144054 0.80293 -0.24792238
0000a0 d4 6e 0a 3f 5d e9 83 3f 1b 85 15 be a9 0d 84 bc
       0.5407536 1.0305592 -0.14601557 -0.016119795
0000b0 02 c8 24 bf 27 35 bd bd 9a a6 13 bf b4 71 bc 3e
       -0.6436769 -0.09238654 -0.5767609 0.368055
0000c0 87 e8 74 be 46 c3 18 3f c3 c8 6f bf 1b 2d 01 be
       -0.23916827 0.59672964 -0.93665713 -0.12614863
0000d0 86 dd 7c 3f 03 2f ca be 04 33 80 3e 69 c5 40 3f
       0.9877552 -0.39488992 0.25038922 0.75301224
0000e0 a7 30 66 3f 2e eb b0 3d 95 48 42 3f b7 02 aa bf
       0.8991799 0.08638607 0.75892 -1.3282079
0000f0 45 eb 1a 3f 8f 58 83 be 95 ed 70 3e d6 7e c9 3d
       0.6051524 -0.25653502 0.2352813 0.09838645

feature_extract.mlps.1.batch_norms.0.running_var f4 [64]
000000 1f b4 b2 3e 48 e5 20 3f 09 4a 4c 3f 6f b1 c6 3e
       0.34903046 0.62849855 0.7980047 0.38807246
000010 7d e2 8b 3f fc 3f 88 3e 45 da ac 3e 33 c2 f1 3e
       1.0928494 0.26611316 0.33760276 0.47218475
000020 f0 82 06 3f bf ef 96 3e 85 e6 12 3f ec 32 f8 3e
       0.52543545 0.29479787 0.57382995 0.4847635
000030 04 cf 37 3e 2c 26 81 3f 3c 50 68 3e c1 1d 94 3f
       0.17950064 1.0089774 0.22686857 1.157158
000040 2b 76 ef 3e 1c d5 4c 3f c1 af 88 3e 73 8c 9f 3e
       0.46769843 0.8001268 0.2669659 0.31161842
000050 b9 d2 4c 3f 8b 6d ac 3f 96 b0 00 3f e3 ae 53 3f
       0.8000904 1.347093 0.5026945 0.8268873
000060 23 31 0b 3f ab f8 18 3f 72 de a7 3f d9 fc 90 3e
       0.5437185 0.5975444 1.311476 0.28317907
000070 34 4e f8 3e 9c 17 8b 3f c3 68 3e 3e f4 e2 6b 3f
       0.48497164 1.086658 0.18594651 0.9214318
000080 c7 fd 80 3e 64 23 7f 3f 73 b5 8a 3e 8d 75 ff 3e
       0.25193617 0.99663377 0.2709156 0.49894372
000090 24 ac b2 3e c1 39 90 3f 63 cd 34 3f ab 1e 19 3f
       0.34896958 1.1267625 0.70625895 0.5981242
0000a0 eb a3 0a 3f ec dd 74 3e a5 48 68 3e 2a 43 48 3e
       0.5415637 0.23912781 0.22683962 0.19556871
0000b0 96 08 2d 3f f9 e6 fa 3e 47 be 7b 3e 08 eb 44 3e
       0.67591226 0.49004343 0.24584304 0.19230282
0000c0 1a dc 95 3f df ca b7 3e 7c 91 33 3f c4 91 5b 3e
       1.1707795 0.35896966 0.70143867 0.21442324
0000d0 3f f0 1e 3f 62 c2 a9 3e 06 33 62 3e b1 84 b6 3d
       0.62085336 0.33156115 0.22089776 0.089120276
0000e0 50 51 36 3f 41 28 2c 3e cd ef 6b 3e b7 97 c2 3e
       0.71217823 0.1681223 0.23040695 0.38006374
0000f0 ce b6 a2 3e d4 a3 00 3f 81 9c ec 3e 8d d7 07 3f
       0.31780094 0.5024998 0.46213153 0.5306328

feature_extract.batch_norms.0.weight f4 [64]
000000 dc 4f 7f 3f 15 11 80 3f ec 20 80 3f a4 75 7f 3f
       0.9973123 1.0005213 1.0010047 0.9978888
000010 bb 4e 80 3f c2 7e 7f 3f 6f 55 7e 3f 8e 4c 7e 3f
       1.0024027 0.9980279 0.9934911 0.99335563
000020 c0 55 7e 3f a6 b5 7f 3f 4d 78 7f 3f 81 2c 80 3f
       0.99349594 0.9988655 0.9979294 1.0013582
000030 35 84 7f 3f 55 38 7c 3f 9b b4 7f 3f da 75 80 3f
       0.99811107 0.98523456 0.9988496 1.0035965
000040 1a ea 80 3f 80 ba 80 3f 92 6c 7f 3f 28 65 80 3f
       1.0071442 1.0056915 0.9977504 1.003087
000050 69 52 80 3f 08 d6 80 3f a1 a3 7f 3f ce a2 80 3f
       1.002515 1.0065317 0.9985905 1.0049684
000060 23 87 7e 3f 56 78 7c 3f 48 ca 81 3f f6 ef 7e 3f
       0.9942495 0.9862112 1.0139856 0.995849
000070 50 9c 80 3f 73 35 7f 3f 71 1f 80 3f 5b 94 7e 3f
       1.0047703 0.9969093 1.0009595 0.9944512
000080 91 e0 7f 3f d6 de 80 3f 0f 61 80 3f d8 04 80 3f
       0.99952036 1.0068004 1.002962 1.0001478
000090 d9 a6 7f 3f 3e e0 7f 3f 42 73 7f 3f 32 1d 80 3f
       0.99863964 0.9995154 0.99785244 1.000891
0000a0 69 b2 80 3f ef 23 80 3f 53 29 80 3f 28 a3 7f 3f
       1.0054446 1.0010966 1.0012611 0.9985833
0000b0 02 74 7e 3f 20 78 80 3f 50 58 7e 3f 72 da 80 3f
       0.99395764 1.0036659 0.99353504 1.0066664
0000c0 24 0c 81 3f 2a 1f 7f 3f b2 e0 80 3f da 4d 7f 3f
       1.008183 0.9965693 1.0068572 0.9972817
0000d0 11 41 80 3f 1d 6c 80 3f 5d 1f 80 3f 64 3e 7f 3f
       1.0019857 1.0032994 1.0009571 0.99704576
0000e0 ce 13 80 3f a5 4f 80 3f 6e 99 7f 3f bd 05 80 3f
       1.0006044 1.0024306 0.9984349 1.0001751
0000f0 13 07 80 3f 79 60 7f 3f d2 92 80 3f 32 32 80 3f
       1.0002159 0.9975658 1.0044806 1.0015318

feature_extract.batch_norms.0.bias f4 [64]
000000 e8 1e 6a ba 92 8b 79 3b 6f 97 24 3b 5b f9 58 bb
       -0.0008930997 0.0038077575 0.0025114676 -0.0033107612
000010 aa 80 3e 3b 3e c2 33 bb b0 b4 9f bb a9 11 45 3a
       0.002906839 -0.002742901 -0.0048738346 0.0007517585
000020 83 d9 e9 bb 08 3a 89 bb 9b 16 f3 39 40 78 7e 3a
       -0.007136525 -0.004187826 0.00046365414 0.00097072497
000030 0f 36 6f 3a 0a 03 a7 ba 8d 23 05 3a d7 5f e5 3b
       0.0009125182 -0.0012741995 0.0005078845 0.0069999504
000040 10 b1 0f 3c 60 2d 6a 3b 6f 22 0e 3b 27 9d dc bb
       0.008770242 0.0035732612 0.0021688004 -0.006732601
000050 aa 3c 3e 3b 27 87 74 3b ff 0b 3e ba 88 08 bf 3b
       0.0029027858 0.0037312002 -0.00072497124 0.0058298744
000060 cd 9c dd bb 7d 5c 58 bc e6 6b 59 3c c7 7c 97 bb
       -0.006763077 -0.013205645 0.013270354 -0.004623029
000070 a6 a5 6c 3b 11 66 06 bb 2e 3f 4e 3a ad 01 9e bb
       0.0036109476 -0.0020507614 0.0007867691 -0.004821977
000080 c4 12 7e 3a a2 59 cc 3b 19 f5 57 3b fc dc 56 ba
       0.00096921274 0.006236271 0.0032952486 -0.00081963814
000090 4b 7c 0d 3c a8 60 14 3b ae d3 94 bb 3a 8f e5 b9
       0.008635591 0.002264062 -0.0045418357 -0.00043784996
0000a0 ff 85 bb 3a da 70 cd 3b 91 51 35 ba 23 29 b0 3b
       0.0014306902 0.0062695565 -0.00069167564 0.0053759976
0000b0 15 98 0a bc b1 9e 69 b8 22 f6 8b bb ae dc db 3b
       -0.008459111 -5.5699322e-05 -0.0042712847 0.0067096567
0000c0 67 58 51 3b 91 04 21 bb 75 0b d8 3b ec 0b ce ba
       0.003194356 -0.0024569372 0.0065931627 -0.0015720106
0000d0 f4 29 d6 3a 8c 62 37 3c a2 f8 dc 3a d3 1b f1 ba
       0.0016339407 0.011192929 0.0016858766 -0.0018395133
0000e0 29 e9 e9 3a 26 65 a1 bb 97 e1 87 bb 79 79 08 ba
       0.0017845976 -0.004925388 -0.0041467655 -0.0005206089
0000f0 89 bd 87 38 2a f3 9e ba 8b 17 a5 3b 90 f2 b4 3b
       6.472605e-05 -0.0012126912 0.005038207 0.0055220798
