L2D/SavedNetwork/stoch10_10_1_99attn.pth (torch, 114641 bytes, 45 tensors)

scenario_linear.weight f4 [16, 2]
000000 4f c9 91 be b8 b2 d2 3e 9e b3 00 3f 26 df 5e be
       -0.284739 0.41151977 0.50274074 -0.21764812
000010 b1 e5 84 3d 66 35 d7 be c3 d5 09 bf 0e 24 a8 3e
       0.06489123 -0.42032927 -0.538418 0.32840008
000020 e0 f2 00 3f 95 19 e4 bc b1 6c 31 bf 63 fe 52 be
       0.503706 -0.02784423 -0.69306475 -0.20604853
000030 69 e0 d4 be bc 04 44 be 00 7b 5a be 20 f2 13 bf
       -0.4157746 -0.19142431 -0.21335983 -0.5779133
000040 0e 84 c3 be 2f 33 92 3e 1e 7c b4 be c8 c4 a1 be
       -0.38186687 0.28554675 -0.35250944 -0.31595445
000050 28 83 c6 be f4 9f 0b 3f a2 6a 9d be ef 78 5f be
       -0.3877194 0.54540944 -0.30745417 -0.21823476
000060 5b fd 11 be 27 a9 2a 3f 04 84 d2 be e5 e9 79 3e
       -0.14256804 0.66664356 -0.41116345 0.2440563
000070 ad 32 1a 3f a8 d3 1a 3e 31 87 32 3f 87 40 ad be
       0.60233575 0.15119803 0.69737536 -0.33838293

scenario_linear.bias f4 [16]
000000 08 aa 09 3f 56 57 1c bf 29 14 cf 3e 18 3a 06 bf
       0.5377507 -0.61070764 0.40445068 -0.52432394
000010 42 a9 0f bf 78 9c fb 3d 69 fc 1d bc 4b dc 5e 3e
       -0.5611764 0.122857034 -0.009642699 0.21763723
000020 d3 30 50 3c dc 43 bc 3c 12 d6 b1 be 58 69 5b 3e
       0.012706953 0.022981577 -0.34733635 0.21426904
000030 cb 6f 57 be 1b bf 1a 3e ba ea bf 3c 43 8d 25 bd
       -0.2103874 0.15111963 0.023427356 -0.04041792

scenario_processing.I f4 [1, 8, 16]
000000 12 bd b0 bd 6e a9 21 3e f6 2a 38 be 27 c1 da bb
       -0.08629812 0.15787289 -0.17985138 -0.0066758576
000010 82 c1 e2 3d 6f ea 68 bd b6 c6 14 3e 21 dd 07 be
       0.11072065 -0.0568642 0.14528927 -0.13267948
000020 d6 a1 37 be dd cd bc bd f2 d5 1b be 17 f9 4f bc
       -0.1793283 -0.09218953 -0.15218332 -0.012693665
000030 29 7c ad bd 95 18 7c 3d 37 5c f9 3d e0 b7 2b 3d
       -0.08470947 0.06154688 0.12175792 0.041923404
000040 16 49 6a bb f7 20 84 bd ac 8b ca bd 18 7b 22 3e
       -0.003574913 -0.064516 -0.098899215 0.15867269
000050 b8 36 16 3e 6d a6 c8 3d 64 3a af bd 8e d0 a0 bd
       0.14669311 0.09797368 -0.08556059 -0.07852279
000060 98 3b d1 3c 06 80 88 3c b2 c7 67 bc b5 7f fe bd
       0.025541112 0.016662609 -0.014146732 -0.12426702
000070 7d 7c 0d be de ba d1 3d da 91 e5 3d 9c 88 2a 3e
       -0.1381702 0.1024072 0.112094596 0.16653675
000080 30 a6 3f 3e 39 59 40 bd 60 31 07 bc c2 a7 16 3c
       0.18715739 -0.04696009 -0.008251518 0.00919527
000090 ee 11 2c 3d d9 35 10 3d 7b 5d 3f 3c 2a df d2 bd
       0.042009287 0.035207603 0.011680002 -0.102964714
0000a0 63 07 9b 3b 0d 1a e1 3d fe 39 ba 3d 7b 2f 40 3e
       0.004731105 0.10991297 0.090930924 0.18768112
0000b0 cd 8f b6 3d 2a 44 49 be ba 17 b0 3d 20 57 1c be
       0.089141466 -0.19654909 0.085982755 -0.1526761
0000c0 65 79 26 3e aa 68 1d be df 87 1e be 02 ba 49 3d
       0.16257246 -0.15371957 -0.15481518 0.049249656
0000d0 5a f7 13 3d b0 82 13 3e b0 14 02 be 6b b1 19 3e
       0.036124565 0.14405322 -0.12703204 0.15009086
0000e0 b3 c8 17 3d bd 38 15 bd 26 d3 1a be 86 d7 be 3d
       0.037056636 -0.036431063 -0.15119609 0.093184516
0000f0 83 51 bd 3c 2e 75 20 3e e5 92 ee bd 34 57 35 3e
       0.023110157 0.156697 -0.11649112 0.17709047
000100 86 65 0d be 83 6a f2 bd 70 7c f3 3d d4 62 db bc
       -0.1380826 -0.11836722 0.11888969 -0.026780523
000110 a1 50 01 be 8b fa d3 bc e8 b8 53 3e 33 14 b2 bc
       -0.12628414 -0.025876304 0.20676005 -0.021738147
000120 c2 aa 99 3d ac c8 3a bd 0f 18 3e 3d 56 8b 4c 3e
       0.075032726 -0.045601532 0.046409663 0.19975027
000130 96 fa be 3d 5b 9e 0f be 88 9d f5 bd d9 57 01 bd
       0.09325139 -0.14025252 -0.11992937 -0.03157792
000140 8e 53 ab 3d a8 06 e9 bd d8 c8 ab bb dc 23 c7 3d
       0.08365546 -0.11378223 -0.0052424483 0.097236365
000150 bf f9 c0 bd 80 98 e1 bd b6 e4 b6 3a 43 c4 37 be
       -0.09422635 -0.11015415 0.0013953659 -0.17945962
000160 db 11 c3 3d 0f 2c 5a bd 4c e3 25 3e 24 d3 af 3c
       0.0952489 -0.053264674 0.16199988 0.021462984
000170 eb e4 bd 3d b0 23 15 bd 94 db 9c bd fd 2b a1 bd
       0.09272178 -0.036410987 -0.07659069 -0.07869718
000180 9f 74 c9 3d 20 ae 47 3e 25 51 a1 3d 33 f5 3b bd
       0.09836697 0.19500017 0.07876805 -0.045888137
000190 2c 69 d0 3d 27 d3 22 be a5 c2 27 be 7f 15 91 bd
       0.1017631 -0.1590086 -0.16382845 -0.07084178
0001a0 70 75 c4 3d ab d5 a1 bc ff 7d 0d be 94 1f 2a be
       0.09592712 -0.019755205 -0.13817595 -0.16613609
0001b0 e0 64 ce 3d 5e b0 d9 bd 37 01 aa bd cb db 36 3e
       0.10077834 -0.106293425 -0.08301013 0.17857282
0001c0 5e 36 08 3d 50 a8 d6 bd 5f 11 b1 3c d1 0c e2 3d
       0.033254974 -0.10481322 0.021614728 0.11037601
0001d0 f6 99 c7 bd a0 8f 01 be 59 4b 3c be 62 90 34 be
       -0.097461626 -0.12652445 -0.18388118 -0.17633203
0001e0 32 73 17 be fb 14 dd 3d d2 ee 86 3c 05 55 7d 3d
       -0.14790037 0.10795017 0.0164713 0.06184866
0001f0 03 09 ed 3d 6e 59 39 3e 6f ee 64 bd 74 0c 41 3e
       0.115739845 0.18100521 -0.05589145 0.18852407

scenario_processing.mab0.attention.in_proj_weight f4 [48, 16]
000000 40 a1 21 3e 70 3e a1 bc 30 69 93 be 55 f2 0f be
       0.15784168 -0.019683093 -0.2879119 -0.14057286
000010 aa cb 89 be fa fa 2d 3e 52 63 4b 3c fc dd 63 bd
       -0.26913196 0.16990271 0.0124138165 -0.055631623
000020 9b ba 92 3d 42 da dc 3d 84 57 82 3d dc 4d 98 be
       0.071644984 0.10783817 0.063643485 -0.29746902
000030 6a d9 c4 bd 48 2f 86 be f7 24 d6 3d 6c f9 56 be
       -0.09611781 -0.26207948 0.10456269 -0.20993584
000040 f6 78 6d be 98 33 db 3d fd 01 66 be d5 d8 68 be
       -0.23190674 0.107032 -0.22461696 -0.22738965
000050 64 9a 01 be d6 db 15 3d 1c f7 14 3e 71 ec 0e bd
       -0.12656552 0.036586605 0.1454739 -0.034893457
000060 0f 5a 4b bd 36 f8 f6 bc ff 45 a5 bd 09 9b 87 3d
       -0.049646433 -0.030147653 -0.08069991 0.066213675
000070 35 f2 09 be 29 ce a2 3d 67 7f 50 bc 2f a9 7c 3e
       -0.13471301 0.07949478 -0.012725688 0.24673913
000080 62 08 e0 bc 39 c0 0b 3e ee f9 7f 3e 17 1f 4f 3d
       -0.027347747 0.13647546 0.24997684 0.05056676
000090 4c de 31 bd c2 23 61 3e 44 77 9a 3e 09 28 80 3e
       -0.04342489 0.21986297 0.30169117 0.25030544
0000a0 7c 7f 3d be 60 f8 32 be 7d ec b1 bc 26 c4 91 bd
       -0.18505663 -0.1747756 -0.021719212 -0.071174905
0000b0 0b 8c 7c bd 00 b4 ef 3c 33 98 87 bc c7 2e f9 bd
       -0.061656993 0.029260635 -0.016552066 -0.12167125
0000c0 13 c5 fa 3d 25 61 7c be cb b2 5b 3e db 0b 29 3e
       0.1224462 -0.24646433 0.21454923 0.16508429
0000d0 21 9d 14 3e a4 d0 8f 3d 8f 85 f1 ba 64 17 0c 3d
       0.14513065 0.07022217 -0.0018426644 0.034201995
0000e0 2f 0c 1d be 17 f5 41 3c 9f d7 3c be 42 ac 78 be
       -0.15336679 0.011838219 -0.18441628 -0.24284461
0000f0 36 61 db 3d de ad 60 3e fe 9d 43 be 51 bf 91 3e
       0.10711901 0.21941325 -0.19103238 0.28466275
000100 78 b0 f2 bd f1 2d 58 3d 34 c4 88 be c8 3b c1 bd
       -0.11850065 0.05277819 -0.2671219 -0.094352305
000110 5a 5b 9d be d0 9b 43 3d 39 81 9e 3d 71 89 e2 3c
       -0.30733758 0.047756016 0.07739491 0.027653428
000120 35 6e 96 3c 8b 6a 95 bd 00 4f a0 3d b9 e1 8d 3e
       0.018363098 -0.07295712 0.07827568 0.27711275
000130 a3 65 a3 bc 04 cc 7c 3e 9a 28 a9 3d 71 96 7b 3e
       -0.019945925 0.24687201 0.08259697 0.24569108
000140 ee b6 80 be b3 0d b6 bd 52 46 ce bd 38 3d f8 3c
       -0.25139564 -0.08889332 -0.10072006 0.030302629
000150 75 23 41 3e 3a 2e a7 bd cd 4e c5 3d 9c cd 6f be
       0.18861182 -0.08163114 0.09634171 -0.23418278
000160 1f 4f 62 3e 44 c8 27 be 41 55 0e 3e ab c6 55 bd
       0.22100495 -0.16384989 0.1389971 -0.052191418
000170 70 a7 0d bb 8e 27 ff bc 0b 03 ad 3d 88 82 53 bd
       -0.0021614693 -0.03114679 0.08447846 -0.051638156
000180 d7 40 9f 3e 64 5b f6 bc d5 12 8e be c1 f1 95 be
       0.31104156 -0.030072875 -0.27748743 -0.29286006
000190 c3 16 c9 bd 75 32 50 3c 20 17 8e 3e 6f 34 65 3e
       -0.098187946 0.012707342 0.27752018 0.22383283
0001a0 ed a5 9d bd 1b a1 23 be b7 f5 d5 3d 8a 03 57 bd
       -0.076976635 -0.15979426 0.10447257 -0.05249361
0001b0 01 6b 5c bd c5 39 91 3e 0f 17 1c be 61 cd 8d be
       -0.053812984 0.28364387 -0.15243171 -0.27695754
0001c0 b9 03 21 be 11 3b 32 be 52 3b 1d be 91 1f 6a be
       -0.15724076 -0.17405345 -0.1535466 -0.22863604
0001d0 11 34 7b 3e 6f 84 55 be a6 7f 29 bd e5 69 27 3d
       0.2453158 -0.208513 -0.0413815 0.040872473
0001e0 9b 0a 08 3e 30 f8 02 be d7 74 cc bd 49 11 33 3e
       0.13285296 -0.12789989 -0.09983223 0.17487063
0001f0 08 60 0b 3e ee 0a 93 3d 66 c8 53 3e 0d 80 92 3d
       0.13610852 0.07179819 0.20681915 0.0715333
000200 4e 91 59 bc 30 29 ba 3c ea 78 87 be f8 e0 2e 3e
       -0.013279272 0.022724718 -0.26459438 0.17078006
000210 0e 87 14 be 10 ce a1 bd 72 ff b1 bd 80 3f 84 be
       -0.14504644 -0.079006314 -0.086913005 -0.25829697
000220 98 79 99 be bb f9 c3 bd 46 f7 44 be 88 81 83 3e
       -0.2997558 -0.09569117 -0.19234952 0.25684762
000230 cd a6 52 3e 97 de b8 bd c7 1d 1f bd 0a c2 e4 bd
       0.20571442 -0.09026831 -0.038846757 -0.111698225
000240 95 26 ef bd a7 59 51 3e 13 dd ee bd ba db 86 3e
       -0.11677281 0.20444356 -0.1166326 0.26339513
000250 55 b6 ce bd 60 3d 29 3e 56 5a 26 3e 6a fb d0 3d
       -0.10093371 0.16527319 0.16245398 0.102042034
000260 3b 50 86 be 4b 8e 73 be ad 7f 95 3e 55 de ff 3d
       -0.26233086 -0.23784749 0.2919897 0.12493578
000270 3c ea 7e be 10 8d 61 be 7a 75 1d bd 47 32 d8 bd
       -0.24894041 -0.22026467 -0.038442113 -0.10556465
000280 14 35 33 3e e8 53 45 3e 5c 9b 8d 3e 24 6d 86 3d
       0.17500716 0.19270289 0.27657592 0.06563786
000290 82 6a 1d be 0f f5 b1 bd e7 2a 86 be 53 ee b9 bc
       -0.15372661 -0.08689319 -0.26204607 -0.02269665
0002a0 57 ee fb bd 5f e5 25 be cf 0d f7 3d 40 d3 43 3a
       -0.12301319 -0.1620078 0.12063181 0.00074701384
0002b0 db aa 1b 3e a3 eb 99 3c c2 fc 95 3e ae 67 4b 3e
       0.15201895 0.018789118 0.292944 0.1986377
0002c0 e0 ab 2a bd b2 a9 63 3e 83 34 69 be 60 12 6f bb
       -0.04166782 0.22232702 -0.22773938 -0.0036479458
0002d0 04 d7 54 be f7 47 28 be 47 61 00 3d 47 d1 8c 3e
       -0.20785147 -0.16433702 0.03134277 0.27503416
0002e0 e1 75 8e 3e 9b f0 62 3d d9 ef 95 3e f1 a6 47 be
       0.2782431 0.05540524 0.29284552 -0.19497277
0002f0 6d ef 74 bd 80 70 a5 bd 92 56 42 3e 2d 6d 6a bc
       -0.059798647 -0.08078098 0.18978336 -0.014308256
000300 a2 7f 48 3e 66 cc 03 be 7b 4b 39 be 9d 5a 86 bd
       0.19579938 -0.1287094 -0.180952 -0.06560252
000310 4d f2 07 3e 6f c4 9a 3e 68 25 86 be 23 0e 9f 3e
       0.13276024 0.30227992 -0.26200414 0.31065473
000320 84 5b 9c 3e 33 9e c1 3d 32 c8 21 be af 9c f6 bd
       0.3053857 0.09454002 -0.15799025 -0.12041604
000330 87 c6 08 be fc 7e 87 bd b9 d5 7f be 6b ef f9 3c
       -0.13356982 -0.06616017 -0.24983872 0.030509671
000340 7a 25 9c bd 05 25 c7 bd 1f 41 66 3e 74 84 58 3e
       -0.076243356 -0.09723858 0.22485779 0.21144277
000350 0b 3e 4f 3d a8 7b 9c 3e 17 15 14 be 3b 3c fe bd
       0.05059628 0.30563092 -0.1446117 -0.12413832
000360 74 90 96 bd fb b9 14 be b5 a5 07 3d 9a a2 9a be
       -0.07351771 -0.14524071 0.033117015 -0.3020218
000370 93 a6 13 3e a1 be 85 be 5f 56 cd bc 08 3e f3 3d
       0.14419012 -0.26122 -0.025065599 0.11877066
000380 b0 21 6e be 86 24 89 3e 3c b1 a4 be 6e 1c 6e 3d
       -0.23255038 0.26785678 -0.3216647 0.05813258
000390 20 0a d7 bd 3c 22 6d 3e 12 96 26 bd ed 0b 9b bd
       -0.10499978 0.2315759 -0.040670462 -0.07570634
0003a0 48 19 23 3d ba e7 b7 3d fa 3d 96 be 13 e4 5d be
       0.039819032 0.08979745 -0.2934416 -0.21669035
0003b0 d1 ca 29 3e e7 58 2c be 29 60 a4 bd 2c 4d 46 3a
       0.16581275 -0.16830789 -0.080261536 0.00075646
0003c0 9b 24 9a bd 67 5e 8e 3e 66 36 e8 3b ca 76 95 bd
       -0.07526513 0.27806398 0.007086563 -0.07298048
0003d0 29 fb 26 bd a3 ee 0e be da 88 cf bd 4c 79 79 3d
       -0.04076687 -0.1395822 -0.10133524 0.060906693
0003e0 93 ab 07 be 2e 2c 87 3d a4 e9 11 3e 60 4a 54 3d
       -0.13249044 0.066002235 0.14249283 0.051828742
0003f0 0f f1 8b 3e 96 14 86 be 85 ad 0e 3e 86 88 10 be
       0.2733235 -0.2618758 0.1393338 -0.1411458

scenario_processing.mab0.attention.in_proj_bias f4 [48]
000000 76 db 03 3c d4 01 54 3a 28 d2 38 bc 6c e1 32 bc
       0.008047929 0.00080874306 -0.011280574 -0.010918003
000010 ad 75 5e bc fe 0c 8b bc 4c 2b 4d 3c 8a fe 8c 3c
       -0.013577861 -0.016973969 0.01252253 0.017211217
000020 a1 8e 94 3c 20 c1 9c bc b6 85 6b bc ef a2 d4 3c
       0.018134417 -0.019135058 -0.014375141 0.025956599
000030 a5 88 e6 bb 2f 04 8f bb d1 5e 9b 3c 68 64 a4 3b
       -0.0070353323 -0.0043645124 0.01896611 0.005016852
000040 fb b6 9c 36 bf 49 a3 b7 bf 32 d5 b6 19 64 5a b7
       4.670464e-06 -1.9465455e-05 -6.3538023e-06 -1.3017118e-05
000050 82 72 d9 36 3a c4 40 b7 db 33 01 b8 e4 ad 2a 36
       6.4804344e-06 -1.1489779e-05 -3.080429e-05 2.5433192e-06
000060 0d 72 9e 37 c1 98 84 b6 2a 2b df b5 da 4e 4e b6
       1.8888177e-05 -3.9516895e-06 -1.6627357e-06 -3.074229e-06
000070 e0 1d 19 36 28 dd 20 b7 58 cf 8d b5 25 92 0a 37
       2.2816166e-06 -9.588235e-06 -1.0565664e-06 8.259468e-06
000080 a2 fd 69 bb d2 32 0f 3b 17 6b ac ba dc 9b 10 bb
       -0.0035704155 0.002185036 -0.0013154474 -0.0022065556
000090 bb 4b 83 bb 70 ef 9b ba 7a a8 1f bb 2c 38 eb ba
       -0.0040068305 -0.001189692 -0.0024361894 -0.0017945818
0000a0 d2 ff 91 ba 06 41 64 bb f5 47 04 3c 62 ad d4 ba
       -0.0011138862 -0.0034828796 0.0080737965 -0.0016225989
0000b0 64 6c 8a 3a b0 b4 28 3b 9d 4d 03 b9 81 aa 3e 3a
       0.0010560867 0.0025742464 -0.00012522047 0.0007273332

scenario_processing.mab0.attention.out_proj.weight f4 [16, 16]
000000 9c 03 1b 3d e5 2e 4d 3e a5 68 6e be fa 20 e2 bd
       0.03784524 0.2003742 -0.23282106 -0.11041446
000010 0b cf c5 bd 12 20 3a 3e f8 57 16 3e 37 71 7d be
       -0.09658631 0.18176296 0.14681995 -0.2475022
000020 d8 9e 0e be 0e be 45 be 9e 1a 73 be d3 db 6c be
       -0.13927782 -0.19310781 -0.23740622 -0.23130731
000030 6c e4 f2 3d 33 34 ba 3d e2 6f 9a bc f3 1e 59 bc
       0.11859974 0.090919875 -0.018852178 -0.013252008
000040 64 00 0e be c0 7a ff 3d e0 1a 58 be 0d 61 40 be
       -0.13867337 0.124745846 -0.21104002 -0.18787022
000050 1a 3d 62 be ab 61 da bd 95 b6 4a be 72 0e 22 3e
       -0.22093621 -0.1066316 -0.19796212 0.15825823
000060 68 12 74 be 6f e5 05 3d c2 c1 a4 3d 10 7c 2b 3c
       -0.23835146 0.032689508 0.08044769 0.0104665905
000070 7a 55 dd 3d 39 66 7f 3e d1 4d 06 3e da 36 a4 3d
       0.10807319 0.24941339 0.13115622 0.080182746
000080 8e f9 c6 bd 94 ba e8 bc 58 5e 71 3e c7 a7 bd 3d
       -0.097155675 -0.02840928 0.23571146 0.092605166
000090 69 20 9e bd 87 ac e7 bc 62 bf 60 be 4b 3a 46 be
       -0.077210255 -0.02828051 -0.21948007 -0.19358175
0000a0 97 ac 14 3e 1c 32 11 3d 4e a5 40 3e 83 59 1f 3e
       0.14518963 0.03544818 0.18813059 0.1556149
0000b0 22 2e 10 bd fe db 65 3e aa d1 9a 3d 28 d0 41 3e
       -0.035200246 0.22447202 0.075595215 0.18927062
0000c0 34 77 2b 3e c5 aa 62 3e 85 5b 20 be 3c ba e0 bc
       0.16744691 0.22135456 -0.15659912 -0.027432553
0000d0 94 b8 0a 3e ce 31 5c be e4 6c 68 3d 0b bf 61 be
       0.13546973 -0.21503374 0.05674447 -0.22045533
0000e0 3c a4 f8 bd 32 d1 d4 bd ba 1e 1a be 8f b6 a3 3d
       -0.121407 -0.10391463 -0.15050784 0.07993805
0000f0 05 91 57 3e 0f 07 6f be a8 19 3d 3e ed 97 e1 bd
       0.21051414 -0.23342536 0.18466818 -0.11015306
000100 59 df 09 bd fe d6 2a bd 22 0f 43 bd a5 90 6d bc
       -0.033660267 -0.04170894 -0.047621854 -0.014499818
000110 48 36 94 bd b7 22 35 be dc 19 43 3c df 65 d6 3d
       -0.07236916 -0.17689024 0.011908021 0.10468649
000120 2a 6e 62 3d 8a fd 08 3e 14 87 b1 bd 79 95 bf 3c
       0.055280842 0.13377967 -0.08668342 0.023386704
000130 04 a8 30 3e 77 33 67 3e eb 6c 6a be 78 6c 2f 3e
       0.17251593 0.22578226 -0.22893111 0.17131221
000140 14 b7 3c 3e 4e 7c 2c be db 40 8b bd 9d f0 d2 3d
       0.18429214 -0.16844293 -0.067994796 0.102997996
000150 83 18 1e 3e 7c 70 78 be 2a 92 13 3d be 26 72 bc
       0.15439038 -0.2426166 0.036028065 -0.014779745
000160 1e 46 4b bb 7e b4 55 3e be c9 86 bc ac 00 be bd
       -0.0031017135 0.20869634 -0.01645362 -0.09277472
000170 1c dd 5e 3e 04 bb 96 bd cc 76 35 3e ad cc 35 3e
       0.21764034 -0.07359889 0.17721099 0.17753859
000180 06 77 db 3d 0e 56 21 be 13 30 f9 bd 8a ea 3f be
       0.10716061 -0.15755484 -0.121673726 -0.18741813
000190 ae c8 10 be 44 8d 57 be d7 fb 0a 3c 7a 39 c6 bd
       -0.14139053 -0.21049982 0.008482895 -0.096789315
0001a0 7c 7d 5e 3e 11 c6 4b 3d a6 b0 90 bd 20 9b 81 be
       0.21727556 0.049749438 -0.07064943 -0.25313663
0001b0 55 26 d0 3d 55 d2 51 be 37 63 bc bd 40 d4 02 3e
       0.10163561 -0.20490392 -0.09198611 0.1277628
0001c0 90 c8 f1 3d 91 bf 78 bd ea dd 0d 3e b0 7d ff bd
       0.118058324 -0.060729567 0.13854185 -0.12475145
0001d0 3d 37 24 be d6 d0 29 3e 34 ea 2c 3c ff ce cc 3d
       -0.16036697 0.16583571 0.010553885 0.10000419
0001e0 f8 74 b1 3c 94 5d a9 3d 33 26 0a be 47 56 71 3d
       0.02166222 0.08269802 -0.13491134 0.05892017
0001f0 dd c7 78 bd 5d e0 30 be cf 01 62 3e d5 70 33 3e
       -0.06073748 -0.17273088 0.22071002 0.17523511
000200 f7 c3 06 3c 53 f6 78 3e 60 66 84 be c8 db 3a 3e
       0.008225433 0.24312715 -0.25859356 0.18247902
000210 6b 24 0d bc 6a 07 11 be 13 bd 75 3e 2d 2b 6b 3e
       -0.00861464 -0.14162984 0.23997907 0.22965689
000220 c9 db d1 bd 74 41 09 be 8e eb 8a bd f3 02 cc bd
       -0.10246999 -0.13403875 -0.0678321 -0.099615
000230 64 65 66 3d a2 17 d6 3d a1 71 1b 3d 06 4d 51 be
       0.056249037 0.10453726 0.03795016 -0.20439538
000240 39 e7 1c be 24 83 b4 bd f8 7d d9 bc 13 38 73 bc
       -0.1532258 -0.088140756 -0.026549324 -0.014844912
000250 f1 1e 81 bc 75 eb d0 bc 18 ca 31 be 85 f9 bc 3d
       -0.015761824 -0.0255029 -0.17362249 0.092272796
000260 7f 6d 3e be d0 c2 31 be 8c fc 54 3d 3a e6 7f 3e
       -0.18596457 -0.17359471 0.05199866 0.24990168
000270 c4 32 f4 bd 5b f2 3f be 5a 54 19 bc dc ac ec 3d
       -0.11923745 -0.18744795 -0.00935849 0.11556408
000280 18 5b a9 3d 57 82 30 3b 8d 3c 10 be a1 43 b9 3b
       0.08269328 0.0026933157 -0.14085598 0.005653814
000290 e3 6d 9e 3c 25 3f 5c be 46 b4 d6 3d 74 96 99 3d
       0.019339507 -0.21508463 0.10483603 0.074994
0002a0 7e da bf 3d 7e a9 3a 3e 8b 5d 0b be 10 fd e4 3d
       0.09367846 0.18228719 -0.13609903 0.1118108
0002b0 56 34 5d 3e 6d b5 72 be 0a de 53 be 79 4a b9 3b
       0.21601996 -0.23702021 -0.2069017 0.00565463
0002c0 3d 07 bb bd e0 e3 19 3e 25 26 7b 3e a3 8b d0 bb
       -0.0913224 0.15028334 0.2452627 -0.0063643022
0002d0 a5 22 ba 3c 75 04 1f be 38 ef 72 3e 2f 44 89 bd
       0.022721598 -0.15529044 0.23724067 -0.06702458
0002e0 55 d6 29 be 1c 68 70 be 1e 54 2f be 38 4c 71 bc
       -0.16585667 -0.23477215 -0.17121932 -0.014727645
0002f0 2d 54 03 be ab 13 3f bc dc e9 a8 3c 14 bd 25 bc
       -0.1282508 -0.011662404 0.020619325 -0.0101158805
000300 15 04 b1 3c 9d ac 5c bc 2a 62 e5 3d 12 43 69 be
       0.021608392 -0.013468889 0.11200364 -0.22779492
000310 8a 24 26 be d3 a4 b0 bc 7e 41 16 be 5b 1c 38 3e
       -0.16224876 -0.02156297 -0.14673421 0.17979567
000320 0d 83 33 3e 09 30 44 3d 7b 54 69 bd 1c de d1 bc
       0.1753046 0.047897372 -0.056965332 -0.025618605
000330 46 15 33 3e d4 92 1a 3c ab cb 4d 3e f2 71 76 3e
       0.17488584 0.009434421 0.20097224 0.24066904
000340 8e 2f 33 3d ee 32 46 3e 27 a9 c3 bc 10 ed 07 bd
       0.043746524 0.19355366 -0.023884369 -0.033185065
000350 c2 1a b2 bc c2 01 4e be f5 6b 4e 3e 30 3d 80 3e
       -0.021741275 -0.20117858 0.2015837 0.25046682
000360 b0 93 04 bd 23 39 2e be bd b8 2b bd 66 b9 89 bc
       -0.03236741 -0.17013983 -0.041924227 -0.016812038
000370 d4 d7 5c be 45 ce ec 3d e2 a0 22 be db 64 32 3e
       -0.21566707 0.1156278 -0.15881684 0.17421286
000380 1b 35 4c 3d f1 2f 31 3e b1 d0 02 3e ef 1d 4f 3e
       0.049855333 0.17303444 0.12774922 0.20226263
000390 1f 72 5c 3e 8b 3b 18 3e 41 21 1e be 07 f2 15 be
       0.21527909 0.14866464 -0.15442373 -0.14643107
0003a0 ac 6d cd 3d 0f 17 66 3e d9 a7 08 be e3 dd 24 be
       0.10030684 0.22469734 -0.13345279 -0.16100268
0003b0 75 87 80 be f9 72 91 3d 02 b7 28 be 03 f8 da bd
       -0.25103346 0.071020074 -0.16476062 -0.10691836
0003c0 16 15 87 3d 80 e2 0a be dd 27 47 3e ef b4 e2 bc
       0.06595819 -0.13562965 0.194488 -0.027674166
0003d0 47 0e 44 3d d3 3c 8e 3d 6c ea 8e 3c 40 15 16 3e
       0.04786518 0.06945195 0.017445765 0.14656544
0003e0 84 b4 5a be d4 41 2f 3e e3 49 f1 3d 51 5c 01 3d
       -0.21357924 0.17114955 0.11781671 0.03158218
0003f0 1a 7f 0f 3e 12 3c 55 3e d9 5d e7 bd d5 a2 70 3e
       0.14013329 0.20823696 -0.11297197 0.23499615

scenario_processing.mab0.attention.out_proj.bias f4 [16]
000000 99 57 07 3a 23 fd ff 3b d5 41 bf 3b be 08 a4 b9
       0.00051628944 0.0078121587 0.005836705 -0.0003128703
000010 4e 3d 4d ba 6f 54 83 bb e0 db e3 3b 04 89 bc bb
       -0.00078292645 -0.004007868 0.0069537014 -0.005753638
000020 dc 65 85 3b 78 39 d8 3a 82 08 c6 ba 72 cd 48 3a
       0.0040709805 0.0016496619 -0.0015108737 0.0007660008
000030 d2 02 46 bb be 96 02 bb 8c 8c 9f ba 3d cc 88 3b
       -0.0030214083 -0.0019926275 -0.0012172624 0.0041747377

scenario_processing.mab0.fc_o.weight f4 [16, 16]
000000 cf 66 a2 bd c4 f4 2d bd 2d 3b 2b bd 2c af 17 3e
       -0.079297654 -0.042469755 -0.04180448 0.14812917
000010 88 36 63 be 2f e0 07 be 6b 20 83 3d 0f 90 6c be
       -0.22188771 -0.13269113 0.064026676 -0.23101829
000020 f8 d4 13 3b 1d 54 14 3d 0e f8 e3 bb 54 9d bc bd
       0.002255736 0.03621303 -0.0069570607 -0.092096955
000030 3b ca 00 be 0e d6 ce bd 04 14 b1 bc d1 5a 7c 3e
       -0.12577145 -0.100994214 -0.02161599 0.24644019
000040 5a f1 5c 3d 7a 15 40 be ca 8f 12 3d b5 03 4d 3e
       0.05394111 -0.18758193 0.03578166 0.20020945
000050 b5 bd d0 bd 80 78 72 be ba f2 15 3e 5f ea 44 be
       -0.10192434 -0.2367878 0.14643374 -0.1923003
000060 0b dd 69 ba 13 16 59 bd 58 40 68 bd 58 11 85 b9
       -0.00089211826 -0.052999567 -0.056701988 -0.0002538066
000070 c3 83 2b be 02 02 55 3e 4a df 3c 3e b0 3d 87 be
       -0.16749482 0.20801547 0.18444553 -0.2641425
000080 34 55 6f 3e aa 56 69 3e 70 05 8e bd 5c 38 16 be
       0.23372346 0.22786966 -0.06934631 -0.14669937
000090 b0 31 b2 3d 60 18 d5 3c e0 79 12 be 94 45 72 3e
       0.087008834 0.0260126 -0.14304304 0.23659354
0000a0 c0 64 a3 3b 28 4e 57 be bc b7 74 3e d6 05 42 3e
       0.0049863756 -0.21025908 0.23898214 0.18947539
0000b0 ac 78 02 be 5c 28 18 be 24 69 aa bd 8c 98 d5 bd
       -0.12741345 -0.14859146 -0.08320835 -0.10429487
0000c0 9b 81 79 3e 3a c3 a2 3d 26 d9 63 3e 6c 72 72 3e
       0.24365847 0.07947393 0.22250804 0.23676461
0000d0 ec 3e 5d 3e dc 77 29 be bd 4e c8 3d 4e d7 e1 bc
       0.21606034 -0.16549629 0.09780643 -0.027568486
0000e0 5a 25 23 3e 65 41 4b be 64 39 63 3e 17 20 b0 3d
       0.15932217 -0.19849165 0.22189862 0.08599871
0000f0 50 8f 45 3e c1 31 1b bd 98 d2 bb bd cf 6b f8 3d
       0.1929295 -0.037889246 -0.09171027 0.12129938
000100 f3 c4 0f 3e 37 91 47 be 8e 7b 8a bd 68 a7 5f 3d
       0.14039974 -0.19488989 -0.067618474 0.05460301
000110 43 b2 75 3e 04 9a a6 bd b0 68 cd bd b0 a9 02 bd
       0.23993783 -0.08134845 -0.10029733 -0.031900108
000120 18 55 f9 bd 17 eb 48 be a9 76 75 be e4 a4 62 bd
       -0.121744335 -0.1962093 -0.23971047 -0.055333033
000130 eb 89 2b be a8 a8 d4 3c bf 30 03 3e bc eb 5a 3e
       -0.1675183 0.025959328 0.12811564 0.21378988
000140 20 10 61 3c 09 08 92 3d 06 9c dc bd e0 29 3d 3e
       0.013736755 0.07130439 -0.107719466 0.18473005
000150 1e ff fe 3d 96 b1 3d bd 0f 74 19 bc 96 be a5 3d
       0.124510035 -0.046311937 -0.009366049 0.08092992
000160 1f 95 61 be 88 f4 2b be ae 23 5d 3e 96 8e 2d 3e
       -0.22029541 -0.167925 0.21595642 0.16948923
000170 30 33 17 3d e6 fd 4f 3e 52 b6 88 bc e7 a0 73 be
       0.03691405 0.20311698 -0.0166885 -0.23791848
000180 49 78 b3 3d 9e 3e 7d bc 5a a5 38 bd a1 99 20 be
       0.08763177 -0.015456824 -0.045079567 -0.15683605
000190 8e 19 7f bc 5c 11 55 bd ca 76 13 be f1 89 d6 bc
       -0.015570058 -0.05201851 -0.14400783 -0.026188822
0001a0 3f 47 6c be b2 60 52 3e 6e 0f b5 3d fe a1 c8 3d
       -0.23074053 0.20544699 0.088408336 0.097965226
0001b0 c5 60 bb 3d 17 45 d3 3d 29 d1 70 3e 50 84 19 3e
       0.09149317 0.10315912 0.23517288 0.1499188
0001c0 bd e7 4d be 98 ad 0d be ce 73 26 be ab 19 77 be
       -0.20107932 -0.13835752 -0.16255113 -0.24130885
0001d0 95 15 ae bd c5 3a 70 be 1b e0 4a 3e c5 35 dc 3d
       -0.0850021 -0.23459919 0.19812052 0.10752443
0001e0 bf 3f 22 3e e4 ae 1d be 0f c5 39 3e 0f 2f 17 be
       0.1584463 -0.15398747 0.18141578 -0.14764045
0001f0 b7 d0 ae 3d 05 84 e0 bd 78 18 fa 3d 6f f1 37 be
       0.08535903 -0.10962681 0.12211698 -0.17963193
000200 2f 0a b8 3d bb d3 8c 3c 7f 0b 85 bd a5 4c c0 3d
       0.08986317 0.017190805 -0.06496333 0.09389619
000210 b6 47 2b be 84 68 74 3e b4 a1 43 3e 2a 98 07 be
       -0.16726574 0.23867995 0.19104654 -0.1324164
000220 55 d0 a9 3d 24 73 23 bd 79 b1 d2 bd 89 c4 35 be
       0.08291689 -0.03990473 -0.102877565 -0.17750753
000230 55 20 be 3c 6e 42 d5 bd 40 6c 59 3e 79 03 5f bd
       0.023208776 -0.10413061 0.212327 -0.05444667
000240 b8 64 43 3e 6d eb 31 3e c1 47 19 be 44 68 06 3d
       0.1908139 0.17374964 -0.14968778 0.03281428
000250 0b 9f 3d be de ec 83 bd 74 1d 3b 3c 98 20 72 3e
       -0.18517701 -0.06441663 0.011420596 0.23645246
000260 8d 7d 91 bd 0b 23 64 be df 62 3a be 51 d8 89 bd
       -0.07104025 -0.22278993 -0.18201779 -0.06730712
000270 88 94 3f 3e f1 df 7a be 9c a4 14 3e 93 86 22 3d
       0.18709004 -0.2449949 0.14515918 0.03967912
000280 48 cd 2e 3e a0 dc 80 3e 78 9b 74 be 02 66 11 3d
       0.17070496 0.25168324 -0.23887432 0.035497673
000290 e9 15 f8 bd 80 0e 3f be 31 26 74 3e 64 96 3e 3e
       -0.12113554 -0.18657875 0.23842694 0.18612057
0002a0 36 46 7e be 29 4f 02 3d f4 b1 a2 3d b9 75 28 be
       -0.24831471 0.031813774 0.07944098 -0.16451158
0002b0 72 55 ad 3d 5e c7 7a 3c 10 a5 07 bd 3b e0 0b be
       0.08463563 0.015306322 -0.0331164 -0.13659756
0002c0 bf 0d 72 be 89 04 5e be 70 a2 51 3e 3a f4 a2 3d
       -0.23638056 -0.21681418 0.20472121 0.07956739
0002d0 8d a2 35 3e 03 75 95 3d 38 8a 4e be c9 18 ce 3b
       0.1773779 0.07297709 -0.20169914 0.0062895757
0002e0 7d ac fe bd 40 d8 38 be 25 da 12 be e3 4e 51 be
       -0.12435243 -0.18051243 -0.14341028 -0.20440249
0002f0 04 07 e4 bc b5 dc 66 3c 5d d7 ff bd 7d 56 0e bb
       -0.027835377 0.014090707 -0.12492249 -0.0021719032
000300 84 d5 e0 bd 00 16 19 3e 94 90 90 3d 94 0a 2a be
       -0.10978225 0.14949799 0.07058826 -0.16605598
000310 8c 5b b8 3d c0 4b 67 bd 30 56 a6 3d f2 54 1d 3e
       0.09001836 -0.056468725 0.08121908 0.15364435
000320 66 39 0e be 00 ea a4 bb a0 29 b8 3d 54 86 eb bd
       -0.13889083 -0.005032778 0.08992314 -0.115002304
000330 b0 70 ee bc f0 22 82 3d c0 1f e9 bd a6 a6 67 3e
       -0.029106468 0.0635432 -0.11383009 0.22622165
000340 80 ab 86 bb 76 f9 16 3e 96 e7 32 be 8c 9b 67 be
       -0.0041098 0.147436 -0.17471156 -0.2261793
000350 80 e2 b9 bd ee 2b 61 be 70 f9 87 3d e2 43 2e 3e
       -0.090764046 -0.21989414 0.06639373 0.17018083
000360 b2 b2 19 3e ae b1 01 be 58 34 5e bd 14 57 ee bd
       0.15009573 -0.12665436 -0.054249138 -0.116377026
000370 60 14 70 3d d0 c7 f7 bc 04 4f 62 be 20 e9 8b 3c
       0.05861318 -0.030246645 -0.22100455 0.017078936
000380 f3 57 79 3e b9 b4 ef bd 93 16 06 3e 65 9e 10 3d
       0.24349956 -0.11704392 0.13094549 0.035307307
000390 9d 40 45 3e 4f 8f 14 3e 0a 2b 3c be e9 2f 12 3e
       0.1926293 0.14507793 -0.18375793 0.14276089
0003a0 92 40 31 3e d0 c1 4e 3e cb 4f 1e 3d 87 35 5c 3e
       0.17309788 0.20191121 0.038650315 0.21504794
0003b0 61 45 40 be 23 59 de bc 1c 2a 0e 3e e4 fb 4d 3e
       -0.18776466 -0.027142113 0.13883251 0.2011562
0003c0 34 01 49 be 1c 0f d7 3d ff 88 4d 3e d1 ed 07 3e
       -0.19629365 0.10500929 0.20071791 0.13274314
0003d0 66 bf 16 3d 94 60 82 3d e4 78 1f be d5 27 d3 3d
       0.036803626 0.06366077 -0.1557346 0.10310332
0003e0 24 21 66 3d 7b c1 4b be f9 4a 85 3d 9d 90 a3 3d
       0.05618395 -0.19898026 0.065084405 0.07986567
0003f0 a0 9a 44 bd 62 dc 7a 3e a8 d6 a8 3d 20 c9 46 3e
       -0.047999024 0.24498132 0.082440674 0.1941266

scenario_processing.mab0.fc_o.bias f4 [16]
000000 02 8c 47 3e e5 86 45 bd e8 c7 1e be b4 5d e3 3d
       0.19487002 -0.04822435 -0.15505946 0.11101857
000010 c3 89 16 be 23 c7 0c 3e 5e ef 01 3e 89 ab 6f 3e
       -0.1470099 0.1374784 0.12688968 0.23405279
000020 8c 2a cf 3d f2 e0 92 3d 86 0e cc 3d bf fd 27 3e
       0.10115537 0.07171811 0.099637076 0.1640539
000030 5a 84 37 be d0 57 6f be a7 1a 2d 3e 75 23 18 be
       -0.17921582 -0.23373342 0.16904698 -0.14857276

scenario_processing.mab1.attention.in_proj_weight f4 [48, 16]
000000 a6 b3 eb 3d 79 7b a5 bd a2 b0 50 be 4b 9b 30 be
       0.115088746 -0.08080191 -0.2037988 -0.1724674
000010 1c d0 a9 bd 84 8d 4f be 9b 96 fc bd dc 8e 0f 3d
       -0.08291647 -0.20268828 -0.12333413 0.03504835
000020 26 a1 1e 3e eb 34 6f be 47 ef 6c be 3e cb bd bc
       0.15491161 -0.2336003 -0.23138152 -0.023168202
000030 ff a5 45 bd 66 91 3c 3d e1 cf 22 3e 46 c0 ca 3d
       -0.04825401 0.0460371 0.15899612 0.098999545
000040 81 81 32 3d 8b a3 86 3e ec 0e b3 3d a7 99 df bd
       0.043580536 0.26296648 0.087430805 -0.10917979
000050 8d dc 60 be 75 c3 1c be 45 7b 5b be d7 20 6f 3e
       -0.21959133 -0.15308936 -0.21433742 0.23352371
000060 4b 51 d4 bd 2b ef 9a bc 80 08 5a 3e 99 0c f7 3d
       -0.10367068 -0.018912872 0.21292305 0.1206295
000070 04 97 dd 3b 0b 02 ee bd 84 2d 11 3e 7b fe 84 3e
       0.006762387 -0.116214834 0.14177519 0.25975403
000080 5b b1 31 be ba e4 12 be 9a 33 13 bd 6f 8f 97 3e
       -0.17352812 -0.14345065 -0.035937883 0.2960162
000090 5a 8f 8c 3e d6 37 2f 3e 29 8c dc 3d 48 ed bb 3c
       0.2745312 0.17111143 0.10768921 0.022940293
0000a0 64 ce 40 be 2e 7d 03 3e e6 6b 26 3d 8e ec 31 3e
       -0.18828732 0.12840721 0.040630244 0.17375395
0000b0 03 c3 81 3e 1b 27 86 3e 92 8b 0b 3d ba 08 08 3e
       0.25344095 0.2620171 0.03406865 0.13284579
0000c0 32 7f 94 3d d2 b1 7c 3e 45 68 94 be 6c 30 94 be
       0.07250823 0.24677208 -0.289858 -0.28943193
0000d0 b2 3f 6a be 72 86 40 3e 45 7d 3f 3e 72 f1 2d 3e
       -0.2287586 0.18801287 0.1870013 0.16986635
0000e0 3b c1 85 3e fc 8e 44 be b1 50 53 bc ec ad 3a 3e
       0.26123986 -0.19195169 -0.012897656 0.18230408
0000f0 97 89 39 3e e2 9d ff 3b 90 df 67 bd b9 84 80 3e
       0.18118893 0.0078008035 -0.05660969 0.2510126
000100 cc e8 38 3e 47 db 9d 3e 71 31 37 3e 60 bc 30 3e
       0.18057555 0.30831358 0.17889954 0.1725936
000110 7c cf 2e 3e bb 5c d1 bd 33 a0 17 3d 5a c2 21 3e
       0.17071337 -0.10222765 0.037018012 0.15796795
000120 3c db 9a be d3 95 51 3e a5 87 be 3d 0f 5d 36 be
       -0.30245388 0.2046731 0.09303216 -0.17808937
000130 a0 fc 27 3e b6 bf e5 3c 2b 97 9c be 2a 6f 64 3d
       0.16404963 0.028045516 -0.30584082 0.055770077
000140 85 f1 91 3d 20 27 57 be d8 ad 7d bd 24 cd 2f 3e
       0.07126144 -0.21011019 -0.06193337 0.17168099
000150 e1 31 82 3e 9a b8 66 be 5d c7 77 3d 6b a5 0d 3d
       0.2542868 -0.22531357 0.060492862 0.034581583
000160 f6 a0 0e 3e be 1a 29 be f8 90 71 3e 29 84 d4 bd
       0.13928589 -0.16514108 0.23590457 -0.1037677
000170 b1 54 33 3e 56 0c ca 3d 5c 99 44 3e f4 4e 39 3e
       0.17512776 0.09865634 0.19199127 0.18096524
000180 b6 a8 78 be 36 f4 16 be 7f f8 af bd 21 bd fe bd
       -0.24283108 -0.14741597 -0.08592319 -0.12438417
000190 d0 74 5c bd a8 73 91 bd 6b 3e 41 bd fe 07 53 be
       -0.05382234 -0.07102138 -0.047178667 -0.20608518
0001a0 0f e6 3b be 0d e2 cc 3d 8b 18 d7 3d 77 a7 5f 3e
       -0.18349479 0.10004053 0.10502728 0.21841227
0001b0 af 2e 87 3e cc 9b 5e 3e b6 fd 54 be d8 9c 1b 3e
       0.26402804 0.2173912 -0.20799908 0.1519655
0001c0 6b 4b 93 be 13 91 86 be cd b5 7c bd 63 72 2e be
       -0.28768477 -0.26282558 -0.061696816 -0.17035823
0001d0 d1 ca db 3c e8 f2 87 3e 10 dc 69 3e 85 f0 f7 3d
       0.026830109 0.2655251 0.22837853 0.12106422
0001e0 f8 18 63 3e 7d 1e 2f bd 66 27 d0 bd 12 8e 9b bd
       0.22177494 -0.042753685 -0.10163765 -0.07595457
0001f0 57 80 04 3d 45 86 71 3e 7b d7 6c 3e 68 03 67 be
       0.032348957 0.23586376 0.23129074 -0.22559893
000200 c2 34 e2 3d 60 e0 f2 bc b3 68 6a 3e 21 d8 95 be
       0.11045219 -0.029648006 0.22891502 -0.29266456
000210 a5 ea 3d be 7b 40 94 be 53 e0 71 bd 6d e9 e4 bd
       -0.18546541 -0.28955445 -0.059051823 -0.11177335
000220 96 a9 3e 3d 16 97 15 bd ae 75 65 bd bf c2 c9 bd
       0.04654845 -0.03652104 -0.05602043 -0.09851598
000230 65 e4 7c 3e 12 62 b2 3c 79 12 e2 3d ae ae 06 be
       0.246965 0.02177528 0.1103868 -0.13152573
000240 48 12 d0 bd 0e 15 3a be 29 df 57 3d 3f 39 39 be
       -0.10159737 -0.18172094 0.052703056 -0.18088244
000250 fe 00 3b 3e 5e f3 59 be 38 9d 41 3e 38 2d 98 3e
       0.18262097 -0.21284243 0.1890763 0.29722
000260 e4 21 ea bc bf bd 2e 3e e5 40 ae 3d e1 be c4 bc
       -0.028580613 0.1706457 0.085084714 -0.0240168
000270 c9 e0 7f 3e 42 2b 76 be b9 a3 84 bd d8 5e 51 be
       0.24988092 -0.24039939 -0.0647654 -0.20446336
000280 5f 34 80 3e f9 e5 9d 3c 63 10 11 bd c9 cf 17 3e
       0.25039956 0.019274699 -0.03541602 0.14825357
000290 5d 07 9c be 5f 06 99 be cf f9 89 be 7f 76 6d 3e
       -0.30474368 -0.29887673 -0.269484 0.23189734
0002a0 1c c8 90 be a0 62 f7 3d df e6 3a 3c cb b4 07 bc
       -0.2827767 0.12079358 0.011407583 -0.0082828505
0002b0 4b 69 20 be cd ac 4e bd 3d ce c4 3d 9c b5 9e 3d
       -0.15665166 -0.050457764 0.09609649 0.07749483
0002c0 8e 33 14 be a7 6f d9 bd ba 13 1c be 0c a4 c6 3d
       -0.14472792 -0.10616999 -0.152419 0.09699258
0002d0 02 0d 7c bc 50 fd cd bd a7 18 82 3e bb 79 18 be
       -0.015383961 -0.10058081 0.25409433 -0.14890186
0002e0 e8 b3 62 3d 6c 3b 87 3e 05 58 96 be af c7 93 3d
       0.055347353 0.26412523 -0.2936403 0.07215821
0002f0 fd 8a a5 3d 3b 82 85 bd a7 5d 37 3e 1c 62 ae 3c
       0.080831505 -0.0651898 0.1790682 0.021287017
000300 d8 50 90 3e 14 3a 34 3e f2 f5 89 be b9 cf 44 3e
       0.2818668 0.1760028 -0.26945454 0.19219865
000310 4a ab f3 3d 24 26 43 3e 5f f3 00 3e 0e 54 39 3e
       0.11897905 0.19057518 0.12592839 0.1809847
000320 47 64 2a 3e 32 c3 11 be ea 53 80 3e ee bd 4a 3e
       0.16639815 -0.14234617 0.2506402 0.19799015
000330 7e 22 1e be 57 1d 7d 3c 94 96 10 bd 34 c4 7a 3e
       -0.15442845 0.01544889 -0.035299852 0.24488908
000340 ff 51 18 3e 19 b7 fd bc 46 bb 95 be 23 05 de bc
       0.14875029 -0.030971097 -0.2924444 -0.027102059
000350 41 85 2f 3e 52 17 5c 3e ad 7c 83 be 74 e9 41 be
       0.17140676 0.21493271 -0.25681058 -0.18936712
000360 f4 d9 90 be 2e 76 9a be 63 b1 1f 3e d9 6b 27 3d
       -0.28291285 -0.3016829 0.15595011 0.040874336
000370 8b 63 76 3e 17 8a 69 3e 4a 81 01 be 73 f0 78 be
       0.2406141 0.22806583 -0.12646976 -0.24310474
000380 88 7d 32 bd 9b e7 5d be be fa cc bc b7 74 94 3c
       -0.043576747 -0.21670382 -0.025021907 0.01812206
000390 7b 0a 04 3e 45 a3 71 bd 88 ca 96 3e 42 f1 8f 3e
       0.12894623 -0.058993597 0.29451394 0.28113753
0003a0 c6 61 c6 3c b5 3a bf 3d 2e 8c 10 bc cd f1 b0 bd
       0.024216544 0.09337369 -0.008822484 -0.0863987
0003b0 06 d2 1c be 66 40 82 3e c9 f6 38 3d 51 b4 a1 3d
       -0.15314493 0.25439757 0.045157228 0.07895721
0003c0 2d 30 16 be cc b7 8e be 4b 2f 8f be 99 67 d2 3c
       -0.14666815 -0.278746 -0.2796577 0.025684165
0003d0 06 97 ea 3c e7 00 5b 3e 0e 47 21 3b 58 bc 8e be
       0.028636467 0.21387063 0.0024609002 -0.2787807
0003e0 68 0d 64 bd df 58 0e be 7e 17 61 3e f7 c0 07 be
       -0.055676848 -0.13901089 0.21981618 -0.13257204
0003f0 35 d9 71 3d f7 03 bb 3d 32 f8 e2 bd a4 27 3f be
       0.059045035 0.091316156 -0.11082496 -0.18667465

scenario_processing.mab1.attention.in_proj_bias f4 [48]
000000 60 1f 08 bc fc d8 16 bc 18 82 f8 bb 8a 34 00 3c
       -0.008308262 -0.009207007 -0.0075838678 0.007825026
000010 5e 2b 86 bb c3 59 ab bb 23 83 39 3c 7c 63 ec bb
       -0.0040945252 -0.0052292063 0.011322769 -0.007214008
000020 60 b8 e4 ba ab 58 af 3b 73 b5 da ba b5 37 2f bb
       -0.0017449968 0.005351146 -0.0016686156 -0.0026736085
000030 39 35 22 bb a2 61 3c 39 39 ff 2c 3b c4 a1 a1 3b
       -0.0024750961 0.00017965448 0.0026397242 0.004932614
000040 a8 6e 53 38 3b b2 fb b6 1c eb f1 37 fb e7 81 b6
       5.0409377e-05 -7.5011317e-06 2.883892e-05 -3.8715057e-06
000050 2e f8 cf b7 2e d0 bf b7 d6 5c 16 b6 a2 4c 84 b6
       -2.479189e-05 -2.2865916e-05 -2.240578e-06 -3.942828e-06
000060 6e ae bb b8 e0 23 2a b7 77 77 40 b8 e3 f7 43 b7
       -8.949345e-05 -1.0141142e-05 -4.5887627e-05 -1.1680621e-05
000070 5c 1a c0 b7 f8 98 ba b7 fb 0e 73 37 9b 46 c4 b8
       -2.2900458e-05 -2.224416e-05 1.4487417e-05 -9.3591596e-05
000080 13 67 99 3b 05 bd 81 3b ec 35 75 bc e0 6a c8 bb
       0.004681477 0.0039593005 -0.014966469 -0.006116256
000090 1e 56 be bb 65 80 d6 ba f9 98 b8 bb 2c 5a 31 bb
       -0.005808606 -0.0016365169 -0.00563347 -0.0027061803
0000a0 27 b7 a7 3b 3e f2 71 3b ba e6 53 ba 81 52 e0 ba
       0.005118269 0.003691807 -0.0008083392 -0.0017114432
0000b0 94 17 8d bb 4f f7 34 bb 25 af 9d 39 ab 3a 95 3a
       -0.0043057892 -0.0027613228 0.00030075866 0.0011385282

scenario_processing.mab1.attention.out_proj.weight f4 [16, 16]
000000 c8 bc c9 3d c6 3b 2d be 78 e1 0f 3d 2a 24 c7 bd
       0.0985046 -0.16917333 0.035127133 -0.097236946
000010 9b 75 15 3e ee 44 ab 3c 2d 57 8f 3c 71 66 65 3e
       0.14595644 0.020906892 0.017497623 0.2240236
000020 59 96 c0 3d 18 53 f5 bd b7 67 6c be c4 a0 d0 3d
       0.094036765 -0.119787395 -0.23086439 0.101869136
000030 a2 0b 31 3e 5f bc c2 bd 33 36 aa bd b2 40 82 3d
       0.17289594 -0.09508585 -0.08311119 0.06359996
000040 78 9f 91 ba c0 46 c8 bb e3 66 8b bd 35 99 24 be
       -0.0011110147 -0.0061119497 -0.068067335 -0.16074069
000050 02 2e 23 bd 06 85 fe bd 68 a5 c3 bd 41 eb d9 bd
       -0.0398388 -0.12427716 -0.09553033 -0.10640574
000060 47 a0 1a be 8e 1e 13 be 33 7f 02 3d 96 ce 17 be
       -0.15100203 -0.14367124 0.031859588 -0.148249
000070 b1 9a 67 3e 89 21 75 bd 94 05 3b 3e 5d 59 51 3e
       0.22617604 -0.059846435 0.18263847 0.20444246
000080 40 bd 3f 3e 9b c9 bd bb 94 ac 1b 3d 7e 7d 2d be
       0.18724537 -0.0057918555 0.03800638 -0.16942403
000090 d7 ef 20 be 34 ff 6e be 83 55 e8 bd dc 9d f4 3d
       -0.15716492 -0.2333954 -0.11344435 0.11944172
0000a0 c2 db c9 3d 40 d1 66 bc bc 67 72 be 29 8b 94 3d
       0.098563686 -0.014087975 -0.23672384 0.07253105
0000b0 33 30 91 bd 71 02 5b bb b1 fb a4 bd d1 54 4a 3d
       -0.070892714 -0.0033418203 -0.08055819 0.049397293
0000c0 82 97 6d 3e 0d d8 24 3d 2c 6e 4a 3e e0 58 25 3e
       0.23202327 0.040245105 0.1976859 0.16147184
0000d0 0f 1b df 3b 53 60 47 bc db ba ab 3d 1b 50 28 3c
       0.0068086456 -0.012168962 0.08385249 0.010273005
0000e0 e2 13 87 bd f0 b9 49 be af 99 20 be 99 75 26 be
       -0.06595589 -0.19699836 -0.15683626 -0.16255797
0000f0 44 75 00 3e 9d e3 19 3e 07 26 85 be 78 96 5b 3e
       0.12544733 0.15028234 -0.26005575 0.21444118
000100 f3 3d 4f be 45 cb 13 3e b7 f4 6a be 49 74 b9 bd
       -0.20238476 0.1443301 -0.22944914 -0.09055383
000110 9d d7 05 3d df 7a d3 3d 43 da 39 be a3 b8 5b bd
       0.032676328 0.1032617 -0.18149666 -0.05364288
000120 63 4a 9f bd d4 f1 dd bd 96 21 1e 3e 44 2c 38 be
       -0.0777786 -0.10837141 0.154425 -0.17985636
000130 31 63 70 3e 3e 95 c8 bd 38 54 ed bd 77 c8 33 3e
       0.23475339 -0.09794091 -0.11588329 0.1755694
000140 f6 18 27 3e 4b d8 75 be 9d 90 6c 3e 0c 92 ab bd
       0.16318116 -0.2400829 0.2310204 -0.083774656
000150 6f e3 15 3e 16 d8 10 3e 87 99 70 3e 49 48 6e 3e
       0.1463754 0.1414493 0.23496066 0.23269762
000160 7b 31 cb 3d 11 42 59 be fe e4 5f bd eb 5a 06 be
       0.09921547 -0.21216609 -0.054661743 -0.1312062
000170 81 1d 58 bb da 77 2e 3e 25 ad e2 3d e3 cf eb 3b
       -0.003297657 0.17037907 0.11068181 0.007196413
000180 d3 14 7e 3d cb 4b b0 bc 5c 32 4e bc 5b 53 f7 bd
       0.06203158 -0.021520516 -0.012585249 -0.12076446
000190 1f 94 d1 3c 46 53 c4 3d 93 8f 6f 3e e7 0e 4a 3e
       0.025583325 0.09586196 0.23394613 0.19732247
0001a0 55 76 22 be 97 d1 6f 3d 4e 12 a6 3b 71 45 49 be
       -0.15865453 0.05854949 0.0050681 -0.19655396
0001b0 56 32 c8 3d 37 99 75 3e 8a b6 0d 3e 43 49 68 3e
       0.09775226 0.23984228 0.13839164 0.22684197
0001c0 00 e5 32 3e ab 33 b6 bd 1c ca 86 3d 6c 25 3c bd
       0.17470169 -0.08896574 0.06581518 -0.045934126
0001d0 a1 b6 58 3e 97 a4 38 be cf c3 07 be ea 34 26 be
       0.21163417 -0.18031536 -0.13258289 -0.16231123
0001e0 64 eb 31 3e c5 c8 a0 bd af c3 e7 bc 06 9a ba 3d
       0.1737495 -0.07850794 -0.028291551 0.09111409
0001f0 51 10 ba bd 58 be 13 3e eb 23 72 3e 7f d4 4a 3e
       -0.09085143 0.14428079 0.23646514 0.19807623
000200 05 55 10 be c4 df 34 be de bf 35 3e fd 7d 04 3c
       -0.14094932 -0.17663485 0.17748973 0.008086679
000210 e7 9f 69 be 61 ec 53 be 3f 82 61 3d 5d fe 75 3d
       -0.22814904 -0.2069564 0.055055853 0.060057033
000220 ca e5 bb 3d bd 2e 1e 3e 43 ac 5d be 65 20 1c 3e
       0.09174688 0.15447517 -0.21647744 0.15246733
000230 97 a5 e6 3d af 40 83 3e 57 b4 60 3e dd d4 43 3e
       0.112620525 0.25635287 0.21943794 0.1912417
000240 75 18 2a 3e 99 14 92 3d 1e eb 24 be 7a 36 09 3c
       0.16610892 0.07132835 -0.16105315 0.008374805
000250 1b 2e 9c 3d 1f 44 3a be 3c 90 13 be 86 50 88 bd
       0.076259814 -0.18190049 -0.1441049 -0.066559836
000260 ca 2a 7e 3e f4 da 9d 3d 0b 4e a4 3d 04 63 48 be
       0.2482101 0.077077776 0.08022698 -0.19569021
000270 cc 25 c6 bd 09 86 02 3e eb 7d 64 3e 9c 2b ff 3d
       -0.09675178 0.12746443 0.22313659 0.1245949
000280 e3 f7 9e 3d e4 0e 2e bd 7b 8d ea bb 3c 0c 73 be
       0.077621244 -0.04249467 -0.007157979 -0.23735136
000290 82 3e 13 be e5 3c 77 3e eb 6c fc bd c2 96 a6 bd
       -0.14379314 0.24144323 -0.12325462 -0.081342235
0002a0 bb bc cd bd c2 18 44 3e 96 04 21 be db 28 d2 3c
       -0.10045763 0.1915007 -0.15724406 0.025654247
0002b0 db e8 79 3d ed d8 4a 3d a7 b9 dc bd d4 11 39 3e
       0.061013084 0.049523283 -0.10777598 0.18073207
0002c0 f4 75 05 bd 9d 9f ec 3d 64 bf e7 bb b5 72 6b 3e
       -0.032583192 0.11553881 -0.007072376 0.22992976
0002d0 dc 5d 3d bd 25 7d 95 bd 78 01 36 3e 5e ce b0 bd
       -0.04623209 -0.0729926 0.17773998 -0.086331114
0002e0 e1 b3 23 bd e4 25 8b 3d ce c7 16 be 76 4a 80 bd
       -0.039966468 0.067943364 -0.14724657 -0.06264202
0002f0 9d 31 53 bd ef 45 45 3e b8 ff 54 bc 69 88 1d be
       -0.051560987 0.19264959 -0.013000421 -0.15384068
000300 86 40 84 be f3 6f 42 3e a2 51 e9 3c 2d 66 44 be
       -0.25830477 0.18988018 0.028481308 -0.19179602
000310 37 56 db bd ad aa 33 3c 80 72 0f bd 46 68 4c 3e
       -0.107098036 0.010965985 -0.035021305 0.19961652
000320 58 52 e3 3d db c8 09 3c 28 53 1b 3e e2 df 8b 3d
       0.1109969 0.008409704 0.1516844 0.06829812
000330 7e fc 37 3e 35 86 62 be 1a f3 06 bc 0f 40 0d be
       0.17967412 -0.22121508 -0.008236671 -0.13793968
000340 a4 85 a7 bd a2 00 45 3e e7 9a 34 3d 32 6c 43 3e
       -0.08179787 0.19238523 0.04409304 0.19084242
000350 cf f8 28 be ee 11 2f 3d 6f 6d 08 3e 9d f6 8e bd
       -0.16501163 0.04274171 0.13322996 -0.069806315
000360 35 d9 e6 3d 02 96 db bd 7f f8 34 be be ff 15 be
       0.11271898 -0.10721971 -0.17672919 -0.14648339
000370 94 53 07 be c6 30 e9 bc 4a 5a 0e be 61 c4 9c 3c
       -0.13215476 -0.02846564 -0.1390163 0.01913661
000380 15 76 22 3e 70 5e 66 3e 74 42 23 be 0d 9a 8c bd
       0.15865357 0.22496963 -0.15943319 -0.0686532
000390 13 2e fd bd 61 4b 8e 3d 1e bd 2f 3e 55 14 92 bd
       -0.123623036 0.06947971 0.17161986 -0.07132784
0003a0 8e a5 0c be 56 ff a5 3d 32 7b 1c be e9 a5 53 3e
       -0.13735029 0.08105342 -0.1528137 0.20668758
0003b0 ec b6 15 3e a8 96 3e 3e 5e 78 65 3e 70 39 56 bd
       0.1462056 0.18612158 0.22409198 -0.05230087
0003c0 fe a3 b1 3d 7b fe 23 bc c7 31 4a be ab 18 1f 3e
       0.08673857 -0.010009403 -0.19745551 0.15536754
0003d0 f5 b9 18 3e 7d f6 64 be 55 7e 55 be 1e f5 c8 bd
       0.14914687 -0.22359653 -0.20848973 -0.098123774
0003e0 4d bc 67 3e 42 29 56 3e 77 28 0c be 84 1c 70 3d
       0.22630425 0.20914176 -0.13687311 0.058620945
0003f0 5c 50 06 be 23 9d 02 3e f2 61 72 3e ea e6 b0 3c
       -0.13116592 0.12755255 0.23670176 0.021594483

scenario_processing.mab1.attention.out_proj.bias f4 [16]
000000 c2 a2 33 bb 44 82 1e 3c 58 06 5a 3c 7f 0f 4a bb
       -0.0027410244 0.009674612 0.0133071765 -0.003083199
000010 dc 38 92 bb 99 b8 56 ba 2a 9c 5c bb 0d 95 f0 bb
       -0.0044623446 -0.00081909593 -0.0033662417 -0.007341987
000020 95 7b ee bb 50 76 39 3c ce e5 8b 3b 68 19 a8 bb
       -0.0072779157 0.011319712 0.004269338 -0.005129982
000030 27 11 cc 3a 9b a0 8b 3b 93 48 30 3b d8 b5 48 3b
       0.0015569077 0.004261089 0.0026898726 0.0030625965
